hay_alfred_sensitivity_4.tflite (tflite, 206748 bytes, 9 tensors)

Const_1 f4 [32]
000000 ec 2d 6b bb 58 96 e7 bc 28 70 a7 bb 3a 14 e9 ba
       -0.0035885526 -0.028269932 -0.0051098056 -0.0017782517
000010 e1 b2 2b bb 88 f3 1a 3c a4 2f 23 bc 92 2a e8 bb
       -0.002619915 0.009457476 -0.009960089 -0.007085153
000020 42 b9 a2 3c 8a 58 c3 3c 85 4c d3 3c c6 42 d0 bc
       0.019863728 0.02384593 0.025793323 -0.025422465
000030 32 14 c7 bc 50 65 9e 3c 5a b1 36 3c 15 3c a2 bc
       -0.024301622 0.019335419 0.011150682 -0.01980404
000040 38 ab 8e 3c b6 69 27 bc 9e ef c1 3b a2 30 09 bc
       0.017415628 -0.010218075 0.005918457 -0.008373411
000050 ca 30 5c bb 92 d3 b3 3b 1e 23 8e bc b7 e8 47 bc
       -0.0033598416 0.0054878676 -0.01735073 -0.01220148
000060 d0 8e fc 3b 06 1e a5 3b 77 7a 61 bc a9 42 02 3b
       0.0077074543 0.0050389795 -0.013762108 0.0019876158
000070 59 98 e6 bc 00 36 6c 3c 8c 23 aa 3c 7e a8 8e 3c
       -0.028148817 0.0144171715 0.020768903 0.017414328

Const_2 f4 [32]
000000 4c 1b 82 3f 5a 93 7f 3f 76 51 7c 3f 97 aa 7f 3f
       1.016458 0.99834216 0.985618 0.99869674
000010 46 7b 7e 3f aa 27 7f 3f 77 84 7f 3f 1a ea 7d 3f
       0.9940685 0.996699 0.998115 0.99185336
000020 cf 8c 75 3f 66 05 82 3f a8 1e 81 3f e4 cb 80 3f
       0.9591798 1.0157897 1.008748 1.0062222
000030 8e cd 81 3f 4a f6 76 3f ee 72 85 3f 4b 51 7f 3f
       1.0140855 0.9646956 1.0425699 0.9973342
000040 32 0c 84 3f bc 10 82 3f 05 5b 85 3f c2 7a 7f 3f
       1.0316222 1.0161357 1.0418402 0.9979669
000050 c2 2b 82 3f 82 5e 7f 3f 42 70 7c 3f 16 f9 7e 3f
       1.0169604 0.9975358 0.9860879 0.99598825
000060 89 33 79 3f 8a 98 7c 3f 18 69 7e 3f 83 7a 7f 3f
       0.9734426 0.98670256 0.9937911 0.99796313
000070 48 47 7f 3f 34 d0 82 3f 6a fa 85 3f da c9 81 3f
       0.9971814 1.0219789 1.0467045 1.0139725

Const_3 f4 [32]
000000 5a df 37 3c 11 b3 d0 bb 1c 67 bb 3b 6f b5 a8 ba
       0.011222685 -0.0063690026 0.0057190787 -0.0012871454
000010 10 0b 3c 3c 4b 57 a4 bb de 94 cb bb 5c 6c de ba
       0.011477247 -0.005015289 -0.0062128147 -0.001696955
000020 56 86 5c 3c 9c 26 97 3c d3 1f 80 3c 79 38 0c 3b
       0.013459763 0.018451028 0.015640175 0.0021395965
000030 8e 96 28 3c ee bd 71 bb c6 15 0c 3d d1 e4 25 bc
       0.010289801 -0.0036886889 0.034200452 -0.010125355
000040 d0 68 21 3c dc 82 10 3c 98 bc 0d 3d 2b 5a 16 bc
       0.009851649 0.008820262 0.034603685 -0.009176771
000050 ef 4a 84 3c 8f 79 12 ba b0 d4 84 3b 11 41 df 3c
       0.016149012 -0.00055875716 0.0040536746 0.027252706
000060 61 67 3d 3c 4c d9 75 bc e0 83 e9 bc 33 c0 f0 ba
       0.011560292 -0.015005421 -0.028505266 -0.0018367827
000070 52 38 20 bc 2e 5f 9d 3c 80 a4 d6 3c 44 03 df 3a
       -0.009779053 0.019210424 0.026201487 0.0017014523

Const_5 f4 [32]
000000 68 b6 1e 3e b3 1c d2 3c 92 31 df 3c ba ce 88 bd
       0.1549927 0.02564845 0.027245317 -0.06680055
000010 ae be 00 be 56 ae 83 bd 03 8a 27 3d b2 54 97 bb
       -0.12572739 -0.06429736 0.040903103 -0.0046182508
000020 b4 19 04 3d d6 cd 08 be 86 2a f8 3d a6 15 1c 3e
       0.032251075 -0.1335977 0.12117486 0.15242633
000030 90 51 05 3e eb b4 07 3e bb d5 2d be 8c 06 03 be
       0.13019395 0.13252608 -0.16976063 -0.12795466
000040 08 32 ff bd 87 ee 6c b9 3e c0 a0 3d c8 f3 c2 3d
       -0.124607146 -0.00022595572 0.07849167 0.09519154
000050 29 4d 41 bd b5 d6 00 3e 9a 55 ed bc 44 ef c1 3d
       -0.047192726 0.12581904 -0.028971482 0.094694644
000060 f6 ca f7 3d bf 8e d9 bd 37 fa ba bd 67 43 73 3d
       0.120992586 -0.1062293 -0.09129756 0.05939045
000070 94 ea 28 be 86 eb eb bd 61 71 28 3e 88 be b2 bb
       -0.16495734 -0.11519532 0.164495 -0.005454842

Const_6 f4 [32]
000000 96 88 9d 3f ea 2f 80 3f 5b f1 8d 3f 82 ed a2 3f
       1.2307308 1.0014622 1.1089281 1.2728732
000010 8c 52 6e 3f 6e bf 8b 3f 08 c6 89 3f ce 46 80 3f
       0.93094707 1.0917795 1.0763559 1.0021608
000020 c3 88 a7 3f 31 13 80 3f 87 c4 99 3f 90 ca a3 3f
       1.3088611 1.0005857 1.20131 1.2796192
000030 44 7b 86 3f c3 dd 99 3f b4 dd 7f 3f eb da 7f 3f
       1.0506368 1.2020801 0.9994767 0.9994342
000040 6c 8d ad 3f 2a 46 8b 3f ee 27 8a 3f 3c 71 7f 3f
       1.3558784 1.0880787 1.0793436 0.99782157
000050 bc 48 7e 3f eb a3 9c 3f a4 fc ac 3f 2d f0 75 3f
       0.99329734 1.2237524 1.35146 0.96069604
000060 b4 ec 82 3f 32 0a 80 3f 71 38 90 3f e8 f9 77 3f
       1.0228486 1.0003111 1.1267225 0.968657
000070 88 fb 6d 3f ec a2 7f 3f 18 b6 86 3f 90 e1 87 3f
       0.9296193 0.99857974 1.0524321 1.0615711

Const_7 f4 [32]
000000 0f 8d 70 3e 1e d6 c8 3b 3e 7e b1 3d 2c 52 80 3e
       0.2349131 0.0061290404 0.08666657 0.25062692
000010 46 40 86 bd 1a d0 96 3d 4c 22 91 3d 59 56 aa 3b
       -0.06555228 0.07363911 0.0708662 0.0051982817
000020 0a 36 89 3e e2 18 78 3b 5b f6 66 3e e5 0b 84 3e
       0.2679904 0.0037856628 0.22554915 0.25790325
000030 7a 06 e5 3c b0 78 69 3e 65 52 b8 ba dd 20 b1 ba
       0.02795719 0.22799945 -0.0014062641 -0.0013513822
000040 fe 28 93 3e df a3 7f 3d a0 52 12 3d 56 f2 10 bc
       0.28742212 0.06241214 0.03572333 -0.00884684
000050 4c 7c 14 bc ce 3b 75 3e 5e 1f 91 3e 96 ab d6 bc
       -0.009062838 0.23948595 0.28344244 -0.026204865
000060 16 01 0a 3c d7 90 6d 3b fc 54 d0 3d 1a 76 07 bd
       0.0084231105 0.0036249661 0.101724595 -0.033071615
000070 9a 0b 9a bd 20 43 bb bb de fd c6 3c 48 6d 15 3d
       -0.07521744 -0.005714789 0.024290975 0.03648117

MatMul f4 [32, 1536]
000000 82 5f be 37 be 16 0e bc 72 53 39 3b c8 0c 35 bd
       2.269424e-05 -0.008672414 0.0028278497 -0.044201642
000010 82 e3 bd 3c df a8 c1 3b 1b 57 0a bb f2 66 62 bc
       0.023179773 0.0059100236 -0.0021109048 -0.013818489
000020 25 b6 9a bb be 1d 78 3b 3d da 01 3c c8 67 40 bc
       -0.0047214204 0.0037859525 0.007925567 -0.011743493
000030 7c 00 75 3b c6 63 a5 3c 9a 57 2f bc 0c ff 6b 3c
       0.0037384322 0.020189177 -0.010702038 0.01440407
000040 b0 56 df bc de b4 9d 3c 44 b5 be bb 70 f7 36 3c
       -0.027263016 0.019251283 -0.0058199484 0.011167392
000050 1c d4 31 bb b2 d6 16 bc a4 0a 20 bc 86 a9 f3 3a
       -0.0027134484 -0.009206461 -0.009768162 0.0018589951
000060 6a 80 24 bb 10 ec 56 3c 1e de 81 3b de a5 e7 bc
       -0.0025100955 0.013117805 0.003963246 -0.028277334
000070 88 81 6c 3c b4 fb ef bc 4a 73 99 bb 4c 3b 6a bc
       0.0144351795 -0.029294826 -0.004682933 -0.014296364
000080 6a 96 3b 3c 02 e2 04 3c 44 7a eb bc b4 10 c4 3c
       0.011449436 0.008110525 -0.028744824 0.023933746
000090 6c c1 c5 39 2c 9e 2d bc 4e 32 2f bb 5e 2f 35 3c
       0.0003771888 -0.010596793 -0.0026732865 0.0110586565
0000a0 08 28 8d 3b b0 37 86 3c 1c 98 98 bc cc 8d 07 3c
       0.0043077506 0.016383976 -0.018627219 0.008273553
0000b0 21 1e 80 bc e2 cd 55 bc 7a 74 c1 ba 19 be a9 3a
       -0.015639367 -0.013049575 -0.0014759444 0.001295033
0000c0 92 1d 1b bd c7 3c 44 3c 34 9c b3 bb 00 ce 02 ba
       -0.037869997 0.011977381 -0.0054812673 -0.0004989803
0000d0 f0 6f 4c 3b 2a 36 c4 3c 83 57 02 3c a9 9d 1b 3c
       0.003119465 0.023951609 0.007955435 0.009498038
0000e0 94 47 7a 3c ec 70 47 bc fc 73 b0 3c 8d ae 77 3b
       0.015275855 -0.012172919 0.02153968 0.003779325
0000f0 32 fa 0d ba c9 05 f9 bb 92 3d 47 3d 54 46 3b bc
       -0.0005416005 -0.0075995666 0.048642702 -0.011430342
000100 6c 99 da bc 98 3d b4 3c 02 dd f2 3c 39 7c 70 3c
       -0.026684485 0.022002026 0.0296464 0.0146780545
000110 4e df 9d bc be 1e ec 3b 78 73 f8 3b 5a 0a 27 3c
       -0.019271519 0.007205813 0.0075821243 0.010195339
000120 20 ba 37 3d 3f b1 aa 3c 0a 90 3d bc 20 61 22 3c
       0.044855237 0.02083647 -0.011569986 0.009910852
000130 6d fa 1c 3c ca bb 72 bc 74 22 ba 3c 0a dd 25 3c
       0.0095811905 -0.01481528 0.022721507 0.010123501
000140 1e 3a c4 3c fe aa df bc 16 88 cf bb 90 aa 39 3a
       0.023953494 -0.027303215 -0.0063333614 0.0007082606
000150 7b 8b 91 3a 72 6b 87 3b ee 1d 12 3c ea 77 ce bc
       0.001110419 0.0041326815 0.008918269 -0.025203664
000160 3b 13 e8 3a 91 0d 9b bc 24 a3 e5 3c 9c dd 8b 3b
       0.0017705926 -0.018927367 0.028031893 0.0042683613
000170 92 ff 18 3c 78 39 00 ba db fe 15 3b cc c6 31 3b
       0.009338276 -0.0004891376 0.0022887501 0.0027126549
000180 39 2a ac 3c 56 e8 3e bb f8 f1 8a 3c e6 e8 33 bd
       0.021016227 -0.0029130182 0.016961083 -0.04392328
000190 1f 8c e6 bb 98 4b 48 bb 70 01 67 bb f4 d2 ff bc
       -0.0070357467 -0.0030562636 -0.003524866 -0.03122852
0001a0 c1 1a 51 bc 1c 1c 07 ba b1 fd 07 3c 79 69 a2 3a
       -0.012762726 -0.000515403 0.008300231 0.0012391052
0001b0 05 85 34 3c 72 c2 9a bb 2c 74 eb bc 9d 0e bd 3c
       0.011018042 -0.0047228867 -0.028741919 0.023078257
0001c0 fb c0 2b bd 66 64 36 3d 4a 70 ba bb cd 7e 39 bc
       -0.041932087 0.04452934 -0.0056896554 -0.011321736
0001d0 62 92 a4 bb 8d 7a 86 bb 16 6c b2 3c 15 24 b5 3b
       -0.005022333 -0.0041039647 0.021780055 0.005527983
0001e0 fc 5c f4 3c a5 92 ab 3c fd 30 a8 3c 9d 42 da bb
       0.029829495 0.020943949 0.020531172 -0.006660773
0001f0 52 36 84 bc 10 cd 9e bc 52 46 b5 3b be 4f 3e bc
       -0.016139183 -0.01938489 0.0055320645 -0.011615692
000200 72 7b 77 bc 96 11 8f bc 6c 9d 1c 3c ca 62 79 3c
       -0.015105115 -0.01746444 0.009559017 0.015221307
000210 fc 36 1c 3c b4 03 95 bb a7 fa a3 bb d2 f1 92 3b
       0.009534594 -0.0045475606 -0.0050042453 0.0044843936
000220 7e 64 ad bc 08 39 d9 3b 64 c4 ee 3b 0d c6 af 3c
       -0.021166082 0.006629113 0.007286595 0.021456743
000230 26 91 86 3b 56 ff f2 bc 24 f0 4f ba ab f8 90 bc
       0.0041066585 -0.02966277 -0.0007932207 -0.0176967
000240 f6 44 70 bb e8 c4 ef 3b 04 be 64 3c 40 21 3f ba
       -0.0036662198 0.007317174 0.013961319 -0.00072910264
000250 a2 96 ae bc c6 1a 2b 3d 82 de bb bc 96 bc 80 bc
       -0.021312062 0.04177358 -0.022933248 -0.015714925
000260 a0 99 cd bb 22 6c 2d 3c f1 2a 8a 3c 9f 4d 00 3c
       -0.006274417 0.010584863 0.01686618 0.007831006
000270 78 b4 5f 3b f2 b3 11 3b 3a 19 3e 3d c8 3a 7f bc
       0.0034134667 0.00222325 0.046410777 -0.015577979
000280 ea b5 fa bb 76 56 2a 3c 6a 0a 47 3d 1c 8c 76 3c
       -0.0076510804 0.01039659 0.048593916 0.015048053
000290 ba 71 22 3b 4a 15 e3 3b 6f 5c 1f 3d 86 46 1c bc
       0.0024787025 0.006930028 0.03890651 -0.0095382985
0002a0 ec 35 39 3a 8c 86 05 bc df 64 7d 3c 97 b7 40 3b
       0.0007065225 -0.008149754 0.015465944 0.0029406303
0002b0 82 6f 2e 3c 9f 73 16 bc 6e 4d 39 39 ae 44 ae 3c
       0.010646703 -0.00918284 0.0001767182 0.021272983
0002c0 d9 e2 fd ba 2e 25 ad 3b 6c b3 4d 3c 8a 13 5c bc
       -0.0019369974 0.005283973 0.012554985 -0.013432393
0002d0 4c 26 46 3c 5a ef 0e bd c4 9b 54 3c 76 71 0e bd
       0.012094092 -0.034896232 0.012976591 -0.034776174
0002e0 d2 38 34 bb 0a 1d d0 bb aa 66 ed 3c 42 da ae 3c
       -0.0027499688 -0.006351118 0.028979618 0.021344308
0002f0 a4 e6 b9 3c d0 43 ee bb 2a 90 c2 bc 7c 32 9a bc
       0.022692986 -0.0072712675 -0.023750383 -0.018822901
000300 1c 44 86 3c 74 f1 5b bc 3c 82 94 3b 9f 25 07 bc
       0.016389899 -0.013424266 0.0045321267 -0.008248716
000310 43 44 59 3b 64 2d 32 bb 9a 2e 08 bc 7a 50 2a bd
       0.003315226 -0.00271877 -0.008311892 -0.041580655
000320 5a 63 c9 bc bc d9 fd 3b f0 26 95 bc ea f7 df bc
       -0.024583507 0.007746903 -0.018207043 -0.027339894
000330 4a 95 83 bc fe 76 a2 bc de 4b 6c 3c 8e 1c 74 bc
       -0.016062398 -0.01983213 0.014422385 -0.014899386
000340 c4 cd 7d bc fa 07 a7 3c 3c 93 97 bc 19 fe a0 3c
       -0.015490953 0.020389546 -0.018502824 0.019652413
000350 5a 94 99 bb 50 23 4d 3c 41 cb 18 bc 8e 52 a1 ba
       -0.0046868743 0.012520626 -0.009325803 -0.0012307928
000360 b3 31 91 bc ba 79 ba 3c 88 fc 36 bc ce 5f 2a bd
       -0.017723894 0.022763122 -0.011168607 -0.041595273
000370 66 19 9f 3c 96 37 ec bc d0 80 35 3b 41 89 c3 3b
       0.01942129 -0.0288351 0.0027695186 0.0059672897
000380 38 f9 19 3c a8 1f ad bc ba aa 55 3b e6 66 0a bc
       0.009397797 -0.021133259 0.0032602982 -0.008447384
000390 82 bc b6 3c 1a 75 89 3c 67 3e 94 bc 5a cb 4e 3b
       0.022306684 0.016779471 -0.018096162 0.0031554312
0003a0 7e 30 1c bc 98 f4 7c 3b b2 15 68 bc 21 a5 5d bb
       -0.009533046 0.0038597938 -0.014165329 -0.0033820348
0003b0 d8 48 56 3a 7c bb c5 ba a4 71 23 3c 23 3e e8 3b
       0.0008174307 -0.0015085782 0.0099758245 0.0070874854
0003c0 bd ec 99 3b 6d 96 bf 3b 7e cd ec 3b 6e c9 b8 bc
       0.004697411 0.0058467896 0.007226645 -0.022556987
0003d0 74 26 71 3c 2e 58 17 bc 2b e6 b3 bc 30 e1 a4 bb
       0.014718641 -0.009237332 -0.021960339 -0.0050317273
0003e0 8e f6 ab 3b aa e4 6b bc 33 65 bf 3c 02 01 62 bb
       0.0052478975 -0.0143977795 0.023363685 -0.0034485464
0003f0 89 50 b8 3c f0 6a a1 bc 70 1a c7 3c 01 8a 36 3c
       0.02249934 -0.019704312 0.024304599 0.011141301

MatMul_1 f4 [32, 32]
000000 0e 78 20 bd 43 96 ef 3d f3 69 b1 bd 30 41 21 3e
       -0.039176993 0.11698582 -0.08662786 0.15747523
000010 14 84 ef bd 2d bd ba 3d 26 85 2f 3e 88 e6 2d 3d
       -0.11695114 0.09118114 0.17140636 0.04245618
000020 0e bb 8f 3d 62 1e b2 3b f5 2b 6e 3d d2 1c 00 3d
       0.070181 0.005435751 0.05814739 0.031277485
000030 2e 08 24 bd 78 f3 c8 bd 4e 13 39 3e 33 e8 fe bd
       -0.040046863 -0.09812063 0.1807377 -0.12446632
000040 2e 7b 14 be 2e 17 2d bd a6 4d 89 3d c5 00 e1 bd
       -0.14500114 -0.042258434 0.067042634 -0.10986475
000050 42 b7 22 3e 84 07 1f 3e 12 eb 8a 3b 84 7d bc bd
       0.1589022 0.1553021 0.0042394483 -0.09203628
000060 94 b6 b4 bd 6c 20 bc 3d 84 24 be 3d 53 0f 4f 3d
       -0.088238865 0.091858715 0.092843086 0.050551724
000070 84 2f 29 be c6 e1 ca bc 82 87 44 3d f0 91 73 bd
       -0.16522032 -0.02476586 0.047980793 -0.05946535
000080 34 18 96 3d 38 dd f0 3d 05 5c ca 3d 6a 29 33 3e
       0.07328835 0.11760944 0.098808326 0.17496267
000090 ac da a8 bd 29 07 27 3e 64 fb 18 3e b2 6a e3 3c
       -0.08244833 0.16311325 0.14939648 0.027760837
0000a0 88 39 02 be 6a dc ce 3c 34 42 56 3d 60 1c 96 bd
       -0.12717259 0.025251586 0.05230923 -0.07329631
0000b0 34 eb 89 3d 1a 80 a8 bd 54 e8 8d 3d de f0 fd bd
       0.067343146 -0.082275584 0.06929079 -0.123994574
0000c0 8a a1 98 3d 52 ed 2d 3d e2 b8 19 3d 7c 55 96 3c
       0.07452686 0.042462654 0.037529834 0.018351309
0000d0 ec de da bd f0 44 2c be be fb 85 bd 5b e3 8d bd
       -0.1068705 -0.16823173 -0.06542157 -0.0692813
0000e0 4f 13 dd bc 4d e6 5c 3c 20 07 e8 3c 9c 82 bc bd
       -0.026986746 0.013482642 0.02832371 -0.09204599
0000f0 55 11 a9 3d 63 93 ae bd 5f 0d f7 ba 38 66 99 3c
       0.08255259 -0.085242055 -0.0018848589 0.0187255
000100 bb 99 e0 3d 24 e6 af bd 0c 76 08 bd b6 dd 22 3c
       0.10966822 -0.08588818 -0.033315703 0.009940555
000110 e1 0c 31 3e 24 7b 2f 3e 80 b8 88 3c a0 fe f0 bd
       0.17290069 0.17136818 0.016689539 -0.11767316
000120 b4 66 a9 bd 9f 66 af bd 4a 26 25 3d eb 70 c9 bd
       -0.08271542 -0.08564495 0.04031972 -0.098359905
000130 fb 33 53 3e 2c 6c 03 be 4a cf 2b be e4 16 14 3e
       0.20625298 -0.12834233 -0.16778293 0.14461857
000140 54 c1 1f 3d eb f6 c4 bd 43 f3 81 bb 4c 58 ab 3d
       0.03900273 -0.09617408 -0.0039657666 0.08366451
000150 44 29 2b 3e cc 46 d1 bd 00 5e f8 3c 3a 4f aa 3d
       0.1671496 -0.102185816 0.03031826 0.083158925
000160 96 2b cb 3c 78 69 06 bd cb 2e bd bd 75 84 29 3e
       0.024801057 -0.032815427 -0.09237441 0.16554435
000170 0b 21 2a be bc 49 ef 3c c0 12 ce bd 15 32 d4 bd
       -0.16614167 0.029209964 -0.1006217 -0.10361115
000180 75 00 01 3e c7 99 b7 bb c4 d5 2a 3d f0 0f 2c be
       0.1259783 -0.0056030485 0.04170777 -0.16802955
000190 0e 9f 04 be 16 bf 0b be c8 e2 a6 b9 8a 74 23 3d
       -0.129513 -0.13647112 -0.00031830953 0.039906062
0001a0 b2 ab b4 3c 02 3e e3 bc e2 81 7f 3d 02 a5 66 3c
       0.022054527 -0.027739529 0.062379725 0.014077427
0001b0 6e 15 69 3d 0f a7 48 be 78 2e d9 3d fd 0b 7e 3d
       0.056905203 -0.19594978 0.10604566 0.06202315
0001c0 dc 2d ab bd 86 4a 91 bd 46 83 56 3d 91 a6 98 bd
       -0.08358356 -0.07094292 0.052371286 -0.07453645
0001d0 c4 fb 0e 3c 7a 82 e4 bd 86 15 c0 3d aa ad 3d 3e
       0.008727018 -0.11157699 0.09379105 0.18523279
0001e0 ee b0 83 bd 6d ff 9c 3c 59 40 1c 3e 12 33 84 bd
       -0.06430231 0.019164765 0.15258922 -0.064550534
0001f0 e2 8d 5d bd f8 bd db 3d 9a 26 2b 3e 98 81 e2 3b
       -0.054090388 0.10729593 0.16713944 0.0069124214
000200 c9 ac 43 3e a7 8f 26 be 38 fa d2 3d 74 c1 de 3d
       0.19108881 -0.16265737 0.10301632 0.10876742
000210 2b c9 ba 3d 5e d4 8c 3c ac a2 19 be 1e 04 17 be
       0.09120401 0.017191108 -0.1500346 -0.14747664
000220 84 2c 0c be 58 ae 90 3d 30 9b 92 3d c2 52 97 3d
       -0.13688856 0.070645034 0.07158506 0.07388832
000230 77 1c c3 3d 9e 5c 19 3e 00 d7 75 bd 4e 66 f3 3b
       0.095269136 0.14976737 -0.060019493 0.007427967
000240 d0 1f e7 bd 0b 21 b0 bd c1 a6 a6 3d 08 0a e9 bd
       -0.11285365 -0.086000524 0.081372745 -0.113788664
000250 b9 2b bf bc c0 92 22 bd cc c1 bb 3d f7 09 42 bc
       -0.023336278 -0.039690733 0.09167823 -0.011843196
000260 76 aa 07 bd d9 31 07 3d 7a a2 72 bc c6 bf 4c bb
       -0.03312155 0.033006523 -0.014809245 -0.0031242236
000270 38 16 1d be c5 7d be 3b 64 bb 4b bd 40 ad 8c 3b
       -0.15340507 0.0058133327 -0.049739257 0.004293114
000280 33 3d 70 3d 63 bb 6e 3d c4 fb f6 bd 23 ba 57 bc
       0.058652114 0.058284175 -0.12059739 -0.013166937
000290 ca 23 af 3b eb e5 f0 bd 49 ba 22 be e3 e4 97 3c
       0.0053448426 -0.11762603 -0.15891375 0.018541759
0002a0 98 79 27 3e ff e7 25 be 80 40 16 3e 28 d9 3b be
       0.16354978 -0.1620178 0.14673042 -0.18344557
0002b0 4c e9 00 bc b6 fa e5 bd b3 21 e9 bd f5 64 cd bb
       -0.007868122 -0.1122946 -0.11383381 -0.0062681385
0002c0 a6 61 21 3c bf 67 48 3e 17 0c 13 bd 5c a7 6c 3c
       0.009849941 0.19570826 -0.0359002 0.014444198
0002d0 96 fa 61 3e e0 3d 5c bd 6c e0 1b 3e 49 73 dd bd
       0.22068247 -0.053769946 0.15222329 -0.108130045
0002e0 0f 05 00 3e 7a 10 0a 3e 5f ef 6d 3d e6 ca 8b 3d
       0.1250193 0.13482848 0.05808961 0.06825809
0002f0 06 d1 17 be a8 e6 22 bd 92 54 14 be de 7a d1 3d
       -0.1482583 -0.039770752 -0.14485386 0.10228513
000300 28 1e 09 3e d0 1c 0e be 79 66 8d bd 1d fe 00 be
       0.1339041 -0.13878179 -0.06904311 -0.12596937
000310 0a 11 b1 bc 4f 38 bb 3d 6e 1d ed 3d 34 c8 18 be
       -0.02161457 0.091415994 0.11577879 -0.14920121
000320 e7 a3 dd bd a2 01 30 bc 36 9a d6 bd 41 68 c0 bd
       -0.108222775 -0.010742577 -0.10478632 -0.09394885
000330 ad ef 15 3e 42 06 1f be 63 13 c3 bd 8a 2c 7b 3d
       0.1464221 -0.15529731 -0.09525182 0.061321773
000340 f1 67 40 3e 64 ff 12 bd 1e be 28 3d 79 dc f3 bd
       0.1878965 -0.03588809 0.041196935 -0.11907286
000350 b0 a4 c4 3c 7b 8c 0a be 4d 5c eb 3d 40 b3 c1 bc
       0.02400431 -0.13530152 0.11492214 -0.023645043
000360 16 15 4c 3e 34 16 d4 3d 21 f1 04 be 5c 95 24 be
       0.19929919 0.103557974 -0.12982608 -0.16072601
000370 42 67 29 3c 9a 07 bd 3d 6a 3f 3d bd 80 c7 1b be
       0.01033956 0.092299655 -0.046203054 -0.15212822
000380 be 79 da 3d ab 77 d3 3d ca 56 ba bd 69 7d 90 3d
       0.10667752 0.10325559 -0.09098585 0.0705517
000390 8d b7 1e be 97 96 ab 3d de a0 28 3e 88 d2 c7 3d
       -0.15499707 0.08378332 0.16467616 0.097569525
0003a0 59 b4 40 3d bb 0d 18 bd a4 3d 2c be dd bf 6f 3c
       0.047046993 -0.03712247 -0.16820389 0.014633146
0003b0 ac 35 df 3d de a0 04 3e c1 19 a2 3d d3 cb 43 3d
       0.10898909 0.12951991 0.079150684 0.047801804
0003c0 5f 2d 05 be a0 d6 54 3d 63 d9 b9 3d 72 47 d8 bd
       -0.13005589 0.051962495 0.09074666 -0.10560502
0003d0 86 44 fd bd e4 2f 0a 3e 34 f4 cb bc 40 2c e3 bd
       -0.123665854 0.13494831 -0.024896719 -0.110924244
0003e0 50 3e 28 3d 3e 56 1d 3e 62 5c 0b bd b7 5c 8e 3d
       0.04107505 0.1536493 -0.03402365 0.06951278
0003f0 d6 1d 2e 3e e6 39 84 3d 33 69 6e 3d 08 18 ad bc
       0.17003569 0.06456356 0.058205795 -0.021129623

MatMul_2 f4 [1, 32]
000000 f1 c3 b1 be 1a 5f 1e bd 84 ff 11 3e d2 d6 ac be
       -0.34719804 -0.038664915 0.14257628 -0.33757645
000010 17 c4 fb bc 24 5e d0 3d d2 a7 01 3e 72 2c cf bc
       -0.030733151 0.10174206 0.12661675 -0.025289748
000020 13 d4 a6 be e7 87 2b 3e 1a 55 b6 be c5 1a a0 be
       -0.32583675 0.16751061 -0.35611802 -0.31270424
000030 8c 1a 56 3e 87 73 b1 be cc 5d d2 3d b2 8a 2e 3e
       0.20908564 -0.34658453 0.102717966 0.17045096
000040 76 cc ab be 81 bd 43 3e 3a 23 7b 3e af a1 f8 3d
       -0.3355443 0.19115259 0.24525157 0.12140214
000050 0d 52 03 3d 08 79 a0 be d0 dc ad be 58 89 10 bd
       0.03206067 -0.3134234 -0.3395753 -0.03528723
000060 fc 95 5c 3d f4 00 df 3d 1e 99 6c 3e 00 75 64 bd
       0.053853974 0.10888854 0.23105285 -0.055775642
000070 fc 20 6e bd 28 6e 07 3e 40 a1 3d 3e 8c 9d 3d 3e
       -0.058136925 0.13225615 0.18518543 0.1851713
