hay_al_fred_30000_15000_2000.tflite (tflite, 206748 bytes, 9 tensors)

Const_1 f4 [32]
00000000: c3cf b0bc f29a d5bc b455 f03b cfb8 acbc
00000010: 1347 4d3c 36bf 12bd 3685 bb3c 9ae8 c93c
00000020: 24e3 08bc 1f49 983b f88e f5bb b14a 653b
00000030: 9de4 7a3c 8e08 e23a ea88 5f3b cffc 933c
00000040: af7a d4bb 4ec4 d33c ff27 1bbc fec3 eb3c
00000050: 5fe7 5c3c c254 b93c 340e 58bc 3450 abbc
00000060: b06f 85bc a756 e0ba 6ab5 79bc 572f d5bc
00000070: 97ea e83c 9dcf d5ba 3fed 913c d33e d93c
-0.021583444 -0.02607486 0.0073344354 -0.021084217 0.012529152 -0.035826884 0.022890668 0.024647046
-0.008354936 0.0046473886 -0.00749385 0.0034987147 0.015313295 0.0017244981 0.0034108707 0.018064884
-0.0064843516 0.025850441 -0.009469985 0.02877998 0.013482898 0.022623423 -0.01318698 -0.020912267
-0.016288608 -0.0017115668 -0.015241006 -0.02602355 0.028432174 -0.0016312484 0.017813323 0.026519215

Const_2 f4 [32]
00000000: a99f 7f3f 598b 7f3f 962f 803f 8655 783f
00000010: dfa4 7f3f ae82 7f3f 1f36 7d3f 5301 843f
00000020: 9799 7f3f 7541 7a3f 0c87 7f3f 0870 7f3f
00000030: 8c2c 793f bc9c 7f3f c37b 7e3f 828b 7f3f
00000040: 0b6a 823f 8c39 823f 3ca4 7f3f 2e33 823f
00000050: a319 763f d4cd 7f3f 372b 853f 0ce5 823f
00000060: c9e7 803f f3e1 823f 1cf4 863f 5973 7f3f
00000070: 1a3f 7c3f daa2 7f3f 804f 843f ba4d 803f
0.99853 0.99822 1.0014522 0.970055 0.9986095 0.99808776 0.9891071 1.0312904
0.99843735 0.9775613 0.9981544 0.9978032 0.973336 0.9984853 0.99407595 0.9982225
1.0188612 1.0173812 0.99859977 1.0171869 0.9613287 0.99923444 1.0403813 1.022615
1.0070735 1.0225204 1.0543246 0.9978538 0.98533785 0.99857867 1.0336761 1.002372

Const_3 f4 [32]
00000000: 0e5c cbbb 6b17 18bc 27b7 303c 487f 063d
00000010: 6777 44bc 3143 9ebb bea4 9f3c 057d 3f3d
00000020: 0f58 16bc 55e9 a63c 33ea 43bc 0bd7 83bb
00000030: 3874 8f37 a4db 00bc f1f2 e33b 69cb 0abc
00000040: 85fb 603c 4dfd 033d 1aa7 89bb e356 193d
00000050: 3293 b03b 7039 15bb e1ad dc3c ce19 b93b
00000060: bbde 503c f405 163d 0159 473c cb2b 3cbc
00000070: 8d83 9e3c ad04 953a 356c adbb 5aa2 a13c
-0.006206042 -0.009282927 0.010785854 0.03283623 -0.011991358 -0.004829787 0.019487735 0.046750087
-0.009176268 0.020374933 -0.011957693 -0.004023438 1.7101047e-05 -0.007864866 0.006956451 -0.008471348
0.013731842 0.03222399 -0.0042008283 0.037436377 0.005388641 -0.002276983 0.02693838 0.005648828
0.012748416 0.03662677 0.012167216 -0.01148505 0.019349838 0.0011369191 -0.0052924403 0.019730736

Const_5 f4 [32]
00000000: 31b6 0b3e 556c d7bd 675c 12bd 33bf 173e
00000010: ab14 2bbe b31e 23be bd1b b4bd 8fc0 14be
00000020: 5a67 8dbd 2afe 823d fa54 b5bd 519c 713d
00000030: 8199 1bbe 1bcb 1dbe dac4 2dbe 889c 133e
00000040: eeda 0d3d f55b a53d 6a8a 4abe 7011 ae3d
00000050: 1faa adbd 67ed 03be 55c4 083e 9a56 0fbe
00000060: a7bf 1cbe 6c08 1d3c 3c7c b9bd 28d8 a0bd
00000070: c49b fa3d a36a c4bb 2088 babd 0ddb e43d
0.1364372 -0.105187096 -0.035732653 0.1481903 -0.16707103 -0.1592968 -0.08794353 -0.1452658
-0.06904478 0.06396134 -0.088540986 0.058986966 -0.15195276 -0.1540951 -0.16969624 0.1441518
0.034632616 0.0807418 -0.19779363 0.0849942 -0.08479714 -0.1288353 0.13356145 -0.1399788
-0.15307485 0.009584527 -0.09056899 -0.078537285 0.12236741 -0.0059941574 -0.09107995 0.11174593

Const_6 f4 [32]
00000000: 7847 843f 1d73 a23f dc99 a83f dd00 b23f
00000010: f9d9 873f f276 853f 01d2 733f a42d 803f
00000020: 2366 843f 0f63 a23f 48cf 823f e84b 823f
00000030: 2eab 7d3f 3af3 a73f 0c1d 843f aaab 7f3f
00000040: c288 7f3f 51dd 823f 0531 7e3f c8dd 833f
00000050: 4570 7f3f 9e37 8f3f 316b b73f b79e 7d3f
00000060: 8db1 853f 7547 a43f 2d52 7d3f bb1f 783f
00000070: 6ed6 7d3f c6cc 7c3f 4e6b 863f 2089 7f3f
1.033431 1.269138 1.3171954 1.3906513 1.0613395 1.0426924 0.95242316 1.0013928
1.034367 1.268648 1.0219507 1.0179415 0.99089324 1.3121102 1.0321364 0.99871314
0.9981805 1.022379 0.9929355 1.0302057 0.99780685 1.1188848 1.4329587 0.99070305
1.0444809 1.2834307 0.98953515 0.96923417 0.9915532 0.9874996 1.0501497 0.9981861

Const_7 f4 [32]
00000000: a62c 8e3c 5bbc 913e c8c8 993e 3fec ad3e
00000010: 15ee 053d 69bd 083d 0d63 21bd 4cf3 b93b
00000020: 7e3b 933c 9af8 8c3e 7e92 ca3c a1ef ed3b
00000030: b11a 75bc 6733 9e3e 9d5f d03c 5413 d6bb
00000040: e1de 9fbb 7d08 ba3c fabb 63bc 445f 5c3b
00000050: 1849 29bc ed31 2b3d ab40 b73e 33e1 41bc
00000060: 0777 993c bcf1 933e 9621 7fbc 247f 0fbd
00000070: 64fb 31bc 3c8d d2bc c9c8 1a3d 2e96 66bc
0.017355274 0.28464016 0.30035996 0.33969304 0.032697756 0.03338376 -0.039401103 0.005674755
0.017972704 0.27533418 0.024728056 0.007261232 -0.014959977 0.30898592 0.025436217 -0.006533066
-0.004878864 0.022709126 -0.013899798 0.0033626119 -0.010332368 0.04179566 0.35791525 -0.011833477
0.018733514 0.28895366 -0.015571972 -0.03503336 -0.010863159 -0.025702111 0.03778914 -0.014073892

MatMul f4 [32, 1536]
00000000: ea16 c53c c26e abbc 60cb f1bc 0156 b2bb
00000010: 8326 98bc 7e80 64bc dc2a f73a d411 50bc
00000020: 28e7 823c 8505 c8bc cb40 9cbc 52ad e23c
00000030: f416 bbbc a6a8 283b 292c 963c 0032 83ba
00000040: e09c 2cbc f6b2 d83c 9730 96bb 5969 5ebb
00000050: 3beb b43c 9de0 8bbb f27a 86bc eb7f 843c
00000060: f81e 21bb 4d8d 95bc b109 823b c45c 113c
00000070: e93d 263c 0dd2 19bd 90c0 de3c e9c1 b6bb
00000080: bac3 c03c 0bd1 dd3c 5abd 93bb 232d 6f3c
00000090: 20e0 14bc 27da bfbc 7b6a 00bd 8b19 13bc
000000a0: e698 aebc c18f d43c e61b d4bc 9733 9ebc
000000b0: 1448 5b3b 9c58 9a3c ff91 c2bc 7864 753a
000000c0: 49c9 6dbb 5613 a43c 9ff9 09bc be58 473c
000000d0: b433 94bc 53af 693c a635 19bc 8685 943c
000000e0: 9972 743b 710f 8a3c 5ae9 79bc b9f3 8dbc
000000f0: 91c9 b0bb acc9 acba 0fd8 94bb 37b8 45bc
00000100: 82ac bf3c d9e9 d8bb 1d01 bdbb 87c1 96bc
00000110: 52fe a03b 4e48 56bc 5a44 953b 0111 e23b
00000120: b93b bd3c b3a4 82bc 624b 4cbc 74ee 5bbc
00000130: 9c0b f63b eab0 923b d423 edbb 775b 40bc
00000140: b497 113c 8edf 8b3b b49f 5d3c 65c0 bc3c
00000150: 7e44 81bc 17c8 77bc 3eda 2e3c 7ad2 363c
00000160: dd98 75bc f066 773c 8208 553c a7d9 a23c
00000170: d2da a93c f0cd abbc 6fa7 99bc 76e3 83bb
00000180: cdeb c83c 02bf b73c a095 05bd 4a01 02bd
00000190: 5f18 b03c f5e2 8ebb a99a 4b3c 709a 8439
000001a0: a082 a73b 65d2 57bc 469f 47bc 42ee 77bc
000001b0: 20cf 14bb 4164 8e3b fb8e ce3a 7481 e3bc
000001c0: 0ac4 693b 1883 0c3d bfbe 493c e58a 2e3b
000001d0: a9c7 c0bc bff3 edbb 6258 953c 5c42 62bc
000001e0: f988 f5bc e780 b73c 3b4c 423b d8c1 2c3c
000001f0: bf74 70bc eb64 12bc 7a54 1cbc 977d 05bc
00000200: 0cd9 f53b 74ad dd3b 6b04 55bc 83cb 9abb
00000210: 783f 35bb 3fe2 c8ba ec3d a03c 639b 893b
00000220: ccd8 c73c 8523 2b3c e123 0b3c 4400 a2bc
00000230: d217 5ebc c6ff cdbc ee32 55bc 3020 9cbb
00000240: 2101 8f39 5610 c3bb 9644 b53c cea9 973b
00000250: 5b4f 6e3b 83aa 8f3c f4d9 3f3c 9011 44bb
00000260: ca98 d93c 3406 a93c b709 d9bb 35da 7e3b
00000270: 4d92 69bc 70b8 7f3c f64a 42bb a496 4bbc
00000280: 02ed 4c3c c833 95bc a4c5 e53c 4b97 bcbc
00000290: be08 adbc 5630 c13b c671 ac3c 8864 0b3c
000002a0: ad4a 0c3c 3ae2 873b c0a9 9fbc af99 57bc
000002b0: 22e3 e53c 310e 683c 8121 acbc 8304 a0bc
000002c0: 66e9 6b3c f513 98bc 0f6e 923b a77f 62bc
000002d0: cbd5 6f3c 101d 01bd e5b0 93bb b3b3 9fbb
000002e0: 3583 693c 9310 953c d3b0 ac39 e73a 0cbc
000002f0: 3380 d33a 536c 443c 4829 89bc 2a0a d1bc
00000300: a526 ab3c 7b6e ccbc 6bc1 5a3c 24c6 533c
00000310: 2a4f 53bc 6db9 9ebb ca23 c83a ca2e 733b
00000320: 7ec7 083c 21ab 5539 8324 a8bb eda6 b43b
00000330: 96b8 76bc 2e62 cfbc b26e 393c 674e c73a
00000340: a5f7 03bb 8395 383c 96ba 85bc 4ed0 71bb
00000350: 4c69 90bc 9e88 90bb a11b cf3b 07fa d1b9
00000360: 76b5 be3c 770d a93c 14f8 50bc a350 a13b
00000370: 9b37 bbbc 5f8a 403b e4a8 7fbc 32c9 c53c
00000380: 1e08 0fbc 304d 9e3c e416 01bd c453 8eba
00000390: 6938 b03c bfdf 12bb 99cf 97bc c283 aabb
000003a0: fce3 8d3c 22a3 63bc 730a 40ba c3ca ba3c
000003b0: fecc d7bc fe54 0fbc 6c72 14bc 5561 563c
000003c0: a158 9abc 2df5 c6bb 22c9 f43b 59c8 af3c
000003d0: 4ec4 6fbb c443 4abb 594f 6c3c 5bb5 b2bc
000003e0: b5aa f53b 0485 803b a88b c43c c029 fb39
000003f0: ceba 843c c9ea 8cbc 2262 66bc 6ef8 14bc
0.024058778 -0.020926837 -0.029515922 -0.0054423814 -0.018573051 -0.013946651 0.0018857378 -0.012699563
0.015979365 -0.024416694 -0.019073864 0.027670536 -0.022838093 0.0025735288 0.018331604 -0.0010009408
-0.010535449 0.026452523 -0.004583429 -0.0033937304 0.022084823 -0.0042687193 -0.016416047 0.016174277
-0.002458511 -0.018255854 0.0039684405 0.008872215 0.0101465965 -0.037553836 0.02719143 -0.005577315
0.02353083 0.027077219 -0.0045086564 0.014598164 -0.009086639 -0.023419453 -0.031351548 -0.008978258
-0.021313142 0.025947453 -0.02589221 -0.01931171 0.003345971 0.01884108 -0.023751257 0.00093609793
-0.0036283305 0.020028751 -0.008421331 0.012167154 -0.01809106 0.014262992 -0.00935117 0.018130075
0.003729975 0.016853066 -0.015253389 -0.01732813 -0.0053951223 -0.0013182661 -0.0045423578 -0.012067846
0.023397688 -0.0066196737 -0.005767955 -0.018402828 0.00491313 -0.013078762 0.0045552673 0.0068989997
0.023099767 -0.015947675 -0.012469145 -0.013423551 0.007508708 0.004476656 -0.007236937 -0.011740557
0.0088862665 0.004268593 0.013526846 0.02304096 -0.01577973 -0.015123389 0.01067215 0.01115858
-0.014990059 0.015100226 0.013002517 0.019879175 0.020734224 -0.020972222 -0.018756596 -0.004024918
0.024526501 0.022429947 -0.032613397 -0.03173951 0.021495996 -0.0043605515 0.012427011 0.00025292067
0.0051120073 -0.013172721 -0.01218397 -0.015132489 -0.0022706464 0.0043454473 0.0015759164 -0.027771689
0.0035669827 0.03430471 0.012313544 0.002663308 -0.023532705 -0.007261723 0.01823062 -0.013809767
-0.02997254 0.022400333 0.0029647488 0.010544263 -0.014676272 -0.0089351935 -0.009541625 -0.008147619
0.0075026806 0.006765062 -0.013001542 -0.0047239675 -0.0027656239 -0.0015326216 0.019560777 0.0041994317
0.024395369 0.01044548 0.008492441 -0.019775517 -0.013555484 -0.025146376 -0.013012631 -0.0047645792
0.00027275927 -0.005952875 0.02212743 0.0046283966 0.0036363218 0.017537361 0.011709679 -0.0029917695
0.026562113 0.02063284 -0.0066234726 0.0038887386 -0.014256072 0.015607938 -0.002964673 -0.012426052
0.012507679 -0.018213168 0.028048344 -0.02302136 -0.021122333 0.0058956547 0.021050345 0.008507855
0.008562726 0.0041468414 -0.019490123 -0.0131592 0.028062407 0.01416354 -0.02101207 -0.019533401
0.014398908 -0.018564204 0.0044686864 -0.01382438 0.014638375 -0.031521857 -0.0045071715 -0.0048737167
0.014252474 0.01819638 0.0003293814 -0.008558965 0.0016136229 0.011988717 -0.016743317 -0.025517542
0.02089245 -0.024955025 0.0133517785 0.012925658 -0.012897292 -0.004843882 0.0015269455 0.0037106746
0.008348344 0.00020377013 -0.0051313057 0.005513063 -0.015058657 -0.02531537 0.011317896 0.0015205861
-0.0020136621 0.011266115 -0.016324323 -0.003689784 -0.017628334 -0.0044108173 0.0063204323 -0.0004004987
0.023279887 0.020636303 -0.012754459 0.0049229427 -0.022853663 0.002937935 -0.0156042315 0.024143789
-0.008729963 0.019323915 -0.03151597 -0.0010858704 0.021511273 -0.0022411195 -0.018531607 -0.005203695
0.017320625 -0.013893874 -0.0007325776 0.022801762 -0.026342865 -0.008748291 -0.009060483 0.013084729
-0.01884109 -0.0060717077 0.007470266 0.021457838 -0.0036585513 -0.0030863145 0.014423215 -0.021814993
0.0074971565 0.0039221067 0.023992375 0.00047905557 0.016202357 -0.017201798 -0.014061483 -0.009092433

MatMul_1 f4 [32, 32]
00000000: 8a98 75bd 0b4f 963c 9905 fd3d c390 1abe
00000010: 27e7 213d 800b 193e 9644 a2bd 9a5b db3d
00000020: 1d47 1cbb 089b 573d a2d0 363d b666 123e
00000030: 6d51 cb3d 87d7 00be ef0c 48be c096 1abd
00000040: ccfa b83a db07 f63d 9cc8 293e c4bd b5bc
00000050: 3953 0bbe b7b2 84bb ad57 c2bd 2f8a 023e
00000060: fa0c 1e3c 9e28 223e fcb6 2cbe a929 9d3d
00000070: b9af fd3d 4865 5e3d 9007 ce3d beb2 2abe
00000080: d8bd 693d 3f6f 0b3e d20b 34bd 4f2d 3dbe
00000090: 81eb 57bc 525d bebd 5c99 1f3e 0144 1f3e
000000a0: 4f41 e83d 6e0d d437 1971 00be 790a 1bbd
000000b0: b2a2 2f3e ddb4 12be 9bd7 aa3d f267 9ebd
000000c0: 6d22 13bd 92b8 f9bd 0b56 94bc fc31 a03d
000000d0: 8e29 85bd 20d5 1fbe 8e07 093e fbe2 c9bd
000000e0: a9d0 f63d 33d1 d23c 9b68 ec3d bfc6 27be
000000f0: 6c1d 8ebd 00a1 013c db4d 42be fb51 123e
00000100: b28c bbbd b239 9fbd a520 15be 0142 ee3d
00000110: 7453 25be daaa a43d 1b5a d3bd 661b f33d
00000120: 3edf dabd d203 af3d 56b9 943d 2602 c83d
00000130: 4eaf 0d3e 1fae 0cbe 390d 02bd ace3 2abe
00000140: 5161 90ba d949 d53d e7cf 8cbd fc2b 363e
00000150: ac8c f3bd 7d1e c83d 5713 b6bd af8e 1fbe
00000160: 1a54 e6bd adde f03d 8b68 af39 edee 7d3d
00000170: a62c 3b3e 05b4 bd3c 7d7e 1dbe cf7c fb3c
00000180: 15af 613d fde9 babc f57f 1e3e 249c 1cbe
00000190: 72d7 a13d 0b47 a43c e018 c8bd c745 153e
000001a0: b732 453b 6a2a 203e 18b8 fcbd 5e92 eb3d
000001b0: 0ac3 1ebe 21a6 263b a1ae bfbc 4c3b 993d
000001c0: 1af8 73bd 22b9 ac3d a5c3 d7bc a863 1fbd
000001d0: c098 0f3e 8246 d53c bf42 073d b2a8 9fbd
000001e0: 4c94 b93d 7640 40bd 67c8 603d 6e55 aebc
000001f0: efa9 f23d fc47 213e dadf 60bb 178a 953d
00000200: d848 0c3d 0d6a 8abc 27a3 b4bd 90ce 203e
00000210: 5ddd 2a3e a202 ba3d c536 0c3e e9b2 9d3d
00000220: 4c9c ed3d 7d45 b63d dfac 78bc 3c3a 1cbe
00000230: eacd 043d 1e5d 26bd 81a9 06be f430 25be
00000240: bb5e 2e3e 3a27 15be f28d 00bd 470e 1f3e
00000250: 6601 05be 3b6c 063d 9bad e6bd 4c16 bbbc
00000260: 888c a43d 4c73 00be d8d0 e2bd 6d78 67bd
00000270: 4d1a aabc 9e10 ef3c 79b2 813b ff0d b8bd
00000280: 67bd c2bd b0bd a2bd 9ca9 c23d 909e dfbd
00000290: ca9c 09be 061f 333e bc2e 953d 76c3 ee3c
000002a0: 3639 db3d 0a4b ab3d fd15 2dbe db96 aebd
000002b0: a6e3 9abd 011e 59bd a722 dbbc 3078 183d
000002c0: a438 353e ad61 583d 111c 013d f9e1 08bd
000002d0: fd71 2ebe 646f 2b3e ade8 463d 206c 983d
000002e0: 944c 59bc da4a 203e da49 0dbe e4d4 d83b
000002f0: 7ac1 2b3d 800a 1e3e 7c2d ba3d c549 f0bd
00000300: 6d55 2fbe 4e70 033d 7003 d33d f9e5 d6bd
00000310: ca5b 21be d645 e93d 0edd 083d 99ee 3f3d
00000320: 6fcd a73c f689 6c3d d1d7 5bbd d36c 353d
00000330: 2a04 d1bd 479b 75bc 13df a63c ac01 16be
00000340: 83ef c63d 7242 20be 9d2e 0e3e 4cdd 85bc
00000350: 9575 fcbd 07db 113e 68ad db3d dfbf 853d
00000360: 7f86 cf3d c727 22bd 7bd6 c4bd 31b9 29bd
00000370: 5ff9 a33c 3cfb 5f3d d636 98bd c3be c0bd
00000380: 2e47 e9bd b107 1cbe 4944 86bd 276d 22be
00000390: 0f77 b4bd 89c6 da3b e02b 23bd c508 65bd
000003a0: 4a0d fdbb 96cb 02be 3e1a 3f3d 0176 23be
000003b0: 2392 e8bd 1fe4 233d 5ed8 b1bd 7014 eebc
000003c0: 7601 0b3d 9b68 ac3c 385c 1f3e 4506 adbd
000003d0: cb1f d83d 5200 1d3e f3c3 bf3a 551c 363e
000003e0: 69a6 21bd a270 413c 3b32 253e 549a 413c
000003f0: 2872 393e 4b14 483d f99b c6bd cd2f 4ebd
-0.059959926 0.018348237 0.12354583 -0.15094285 0.039527085 0.14945793 -0.07923238 0.10710831
-0.0023846098 0.052638084 0.04463256 0.14296994 0.0992764 -0.12582217 -0.19536184 -0.037741423
0.0014112829 0.12013217 0.16580433 -0.022185214 -0.13605966 -0.004049625 -0.09489379 0.12748025
0.009646649 0.15835807 -0.16866678 0.07673962 0.12387032 0.054295808 0.10060036 -0.16669747
0.057065815 0.13616656 -0.043956585 -0.18474315 -0.013178707 -0.09295143 0.15585846 0.15553285
0.113405816 2.5278623e-05 -0.12543143 -0.037851784 0.17151907 -0.14326806 0.08341905 -0.0773467
-0.035921503 -0.12193407 -0.018107435 0.07822034 -0.065020666 -0.15608644 0.13381788 -0.09857746
0.120515175 0.02573452 0.115433894 -0.1638441 -0.069392055 0.007911921 -0.18975012 0.14289086
-0.09157695 -0.077746764 -0.14563234 0.11633683 -0.16145116 0.080404 -0.10319921 0.1187046
-0.10687111 0.085456505 0.072619125 0.09766035 0.13836405 -0.13738297 -0.03175089 -0.16688412
-0.0011015331 0.10414476 -0.06875592 0.17790216 -0.118920654 0.0977144 -0.088904075 -0.15581773
-0.1124651 0.11761222 0.00033456492 0.061995436 0.18278751 0.023157129 -0.15380283 0.030699162
0.05509861 -0.022816652 0.15478499 -0.15293938 0.07902421 0.020053407 -0.097703695 0.14577399
0.0030090043 0.1564118 -0.123398006 0.11502527 -0.15504089 0.002542861 -0.0233987 0.07482013
-0.05956278 0.08433749 -0.026338408 -0.0389134 0.14023113 0.026034597 0.03302264 -0.07795848
0.090614885 -0.046936475 0.05487862 -0.02128097 0.118488185 0.15750116 -0.0034313113 0.07301729
0.034249157 -0.016896272 -0.08820181 0.15703797 0.16686006 0.090825334 0.13692768 0.0770014
0.11602077 0.088999726 -0.015177934 -0.1525659 0.032422937 -0.040616147 -0.13150598 -0.16131955
0.17028324 -0.14565745 -0.03138537 0.1553279 -0.12988815 0.03281806 -0.11263581 -0.02283778
0.08034617 -0.12543982 -0.1107499 -0.05651133 -0.020764494 0.029182728 0.003958043 -0.089870445
-0.09508782 -0.07946336 0.09505007 -0.10918915 -0.13438717 0.17492303 0.072843045 0.029145937
0.107042715 0.08363922 -0.16902919 -0.08524867 -0.07562952 -0.05300713 -0.026749922 0.037223995
0.17697388 0.052827526 0.031520907 -0.03341863 -0.1703567 0.16741711 0.04856174 0.07442498
-0.013262887 0.15653554 -0.13797703 0.0066171754 0.04193256 0.15433693 0.09090707 -0.117328204
-0.17122431 0.032089524 0.1030339 -0.104930826 -0.15757671 0.11390273 0.03341394 0.046858404
0.0204837 0.057748757 -0.053672615 0.044293236 -0.10205872 -0.014990634 0.020370042 -0.14649075
0.09713652 -0.15650347 0.13884969 -0.016340874 -0.123271145 0.14243709 0.10726434 0.06530737
0.10133075 -0.039588716 -0.096112214 -0.041436378 0.02001637 0.054682955 -0.07432334 -0.09411385
-0.113905296 -0.15237309 -0.06555993 -0.15861951 -0.08811771 0.0066764993 -0.039836764 -0.055916566
-0.0077225314 -0.12772974 0.046655886 -0.15962984 -0.11355998 0.040012475 -0.08683847 -0.02906248
0.03393694 0.021045974 0.15562522 -0.084484614 0.10552939 0.15332153 0.0014630541 0.17784245
-0.03946534 0.011806639 0.16132443 0.01181658 0.18109953 0.048847478 -0.09697718 -0.050338555

MatMul_2 f4 [1, 32]
00000000: 44f8 a73d 0947 b2be 5623 bbbe 48d7 abbe
00000010: 19fd 093d 203a a23d 79e8 5ebb f075 90bd
00000020: a0d2 a93d 4fec c9be dd2b 0f3e 9829 073e
00000030: 7f14 fb3b e17f a3be d6e6 113e 0770 003e
00000040: 5a96 aa3d 3568 2f3e ceb8 0a3e 0c2a dc3d
00000050: 9b96 8fbd 54d2 5f3e 5457 bdbe 093d 093b
00000060: 2512 323e d076 b2be 9d49 c23d edde ceba
00000070: e4e5 983c 3531 ffbd c43f c03d 5650 173e
0.0820165 -0.3481982 -0.36550397 -0.33562684 0.03368864 0.07921243 -0.0034013076 -0.07053745
0.08292127 -0.39438102 0.13981576 0.1319946 0.0076623554 -0.319335 0.14248213 0.12542735
0.083294585 0.17129596 0.1354706 0.10750207 -0.070111476 0.21857578 -0.3698069 0.002094092
0.17389734 -0.34856272 0.09486697 -0.001578299 0.018664308 -0.12460557 0.09387162 0.1477674
