hay_alfred_sensitivity_3.tflite (tflite, 206748 bytes, 9 tensors)

Const_1 f4 [32]
0	0xbc1d6904	-0.009607557
1	0xbc1fc354	-0.00975116
2	0x3c93529d	0.017983729
3	0x3ca614c0	0.020273566
4	0x3c0007fd	0.007814405
5	0xbb365edd	-0.002782754
6	0x3c00a039	0.0078507
7	0x3ca72a39	0.020405876
8	0x3ca6fa28	0.020382956
9	0xbcc7d13a	-0.02439176
10	0xbc84822b	-0.01617535
11	0x3cdc5b35	0.02689896
12	0xbc09c80c	-0.008409511
13	0xbc98a050	-0.01863113
14	0xbc8206c7	-0.015872372
15	0x3b480177	0.0030518451
16	0x3b84777f	0.0040425654
17	0x3c966252	0.01835743
18	0x3acdce7e	0.0015701798
19	0x3c316e13	0.010829466
20	0x3c89ab37	0.016805274
21	0xbbbf22f5	-0.0058330246
22	0xbc5ae71e	-0.013360767
23	0x3c71ea91	0.014765398
24	0x3ba45be5	0.0050158375
25	0x3c61fce2	0.013793202
26	0xbb3daa91	-0.0028940777
27	0xbc8f427c	-0.017487757
28	0xbc053196	-0.008129498
29	0x3c814dea	0.015784223
30	0x3ca7b44f	0.02047172
31	0x3c89ebf0	0.016836137

Const_2 f4 [32]
0	0x3f81a147	1.0127343
1	0x3f7f1092	0.9963466
2	0x3f7a45cc	0.9776275
3	0x3f7f7e6d	0.99802285
4	0x3f84083d	1.0315014
5	0x3f7dc32e	0.99125946
6	0x3f816569	1.0109073
7	0x3f835a4d	1.0261933
8	0x3f7f7029	0.9978052
9	0x3f8096e5	1.0046049
10	0x3f7f96b7	0.9983935
11	0x3f7b2508	0.9810338
12	0x3f823b6b	1.0174383
13	0x3f820959	1.0159103
14	0x3f83fb9c	1.031116
15	0x3f7f0dd4	0.99630475
16	0x3f7e6241	0.99368674
17	0x3f80ab4a	1.0052273
18	0x3f7f4b79	0.9972454
19	0x3f80380a	1.0017102
20	0x3f7f67cb	0.9976775
21	0x3f7da9eb	0.990874
22	0x3f7a0023	0.9765646
23	0x3f7f4f6d	0.9973057
24	0x3f89c5f6	1.0763538
25	0x3f76fcf4	0.96479726
26	0x3f7f9af4	0.99845815
27	0x3f7f3411	0.9968882
28	0x3f80fbcc	1.0076842
29	0x3f7da1ca	0.99074996
30	0x3f7cbba3	0.9872381
31	0x3f830436	1.023566

Const_3 f4 [32]
0	0x3c706419	0.014672303
1	0xbc6ef49a	-0.014584685
2	0x3b8c5645	0.004282745
3	0xbaabd093	-0.0013108425
4	0x3c6c2590	0.0144132525
5	0x3bf95d28	0.007609982
6	0x3c226ea4	0.009914074
7	0x3d11e7ed	0.035621572
8	0xbc587e14	-0.013213653
9	0x3be13895	0.0068732
10	0xbb2a75a9	-0.0026010072
11	0x3ca81571	0.020518037
12	0x3c2554cb	0.010091017
13	0x3caffeee	0.021483865
14	0x3d7a45ad	0.061101604
15	0xbc716215	-0.014732857
16	0xbab8f4bb	-0.0014111021
17	0x3ce32b27	0.027730538
18	0xbc5d4232	-0.013504552
19	0xba314a7d	-0.0006763114
20	0xbc961d9b	-0.018324664
21	0x3c6ecb3d	0.014574823
22	0xbc35c7de	-0.011095015
23	0xbc5c09e0	-0.013430089
24	0x3e18475d	0.14870973
25	0x3c8e6d57	0.017386122
26	0xbb4c153f	-0.0031140593
27	0xbc72d43f	-0.014821111
28	0x3c442f4d	0.011974168
29	0x3c4bf4cd	0.012448502
30	0x3bb8bb62	0.005637572
31	0x3c8441ac	0.016144596

Const_5 f4 [32]
0	0x3e1bf3cd	0.15229721
1	0xbd28402f	-0.041076835
2	0xbd53942f	-0.05165499
3	0xbdca79ec	-0.09886536
4	0xbce9820f	-0.0285044
5	0xbcfa10a4	-0.030525513
6	0xbd39d07f	-0.045364853
7	0x3dde4fb9	0.1085505
8	0xbc044583	-0.0080732135
9	0xbdedcb56	-0.11611049
10	0x3d5a1c58	0.053249687
11	0xbd6807cb	-0.056648057
12	0x3dd4a7b3	0.103835486
13	0x3df2ce9c	0.11855814
14	0x3df52aee	0.11971079
15	0x3d8b5af9	0.06804461
16	0xbe04b8cc	-0.1296112
17	0xbdad2f31	-0.08456267
18	0x3dbae424	0.091255456
19	0x3df7d6a4	0.12101486
20	0xbd40d25a	-0.047075607
21	0x3defda09	0.11711509
22	0xbde0a31e	-0.10968612
23	0x3daa7e5b	0.08324882
24	0x3d89f41f	0.067360155
25	0xbdbde117	-0.09271448
26	0xbd6059e7	-0.054773238
27	0x3e0b727a	0.13617888
28	0x3d734d8b	0.059400123
29	0x3e031fe7	0.12805139
30	0x3d63b800	0.055595398
31	0xbe22be05	-0.15892799

Const_6 f4 [32]
0	0x3f827a3e	1.0193555
1	0x3f7fe567	0.99959415
2	0x3f8197d9	1.0124465
3	0x3f7f30a7	0.9968361
4	0x3f884f4c	1.06492
5	0x3f9f4b25	1.2444807
6	0x3f83e433	1.0304016
7	0x3faacc27	1.3343552
8	0x3f858a77	1.0432881
9	0x3f7ebcdc	0.99506927
10	0x3f7f6d43	0.99776095
11	0x3f8ca66d	1.0988289
12	0x3f8f4aa4	1.1194654
13	0x3f8c5aac	1.0965171
14	0x3f876976	1.0579059
15	0x3f7f360c	0.99691844
16	0x3f80e144	1.0068746
17	0x3f8107e4	1.0080533
18	0x3f86e80d	1.0539566
19	0x3f9b2b36	1.2122562
20	0x3f85e3ec	1.0460181
21	0x3f87596e	1.0574167
22	0x3f847ac8	1.034997
23	0x3f84e677	1.0382832
24	0x3fa8bbf8	1.3182364
25	0x3fa7b35e	1.3101614
26	0x3fa4cf4a	1.287576
27	0x3f9ed564	1.2408872
28	0x3f84d8c4	1.0378652
29	0x3f9ec81e	1.2404821
30	0x3f9cb7a2	1.224354
31	0x3f898d4b	1.0746244

Const_7 f4 [32]
0	0x3c2b43d1	0.01045318
1	0xba915cf1	-0.0011090321
2	0xbc69e159	-0.0142749185
3	0xbbb65c70	-0.0055652186
4	0x3d6c363e	0.057668917
5	0x3e762940	0.24039173
6	0x3cfeec8f	0.03111866
7	0x3e90f6fb	0.2831343
8	0x3cfd26b2	0.03090224
9	0xbc6bb3f6	-0.014386168
10	0xbb64dd4a	-0.0034921938
11	0x3d0efe3a	0.034910418
12	0x3d2bbca8	0.041927963
13	0x3df65ea5	0.12029771
14	0x3cea34ff	0.028589724
15	0xbb7cdbbb	-0.0038583118
16	0x3a100ace	0.0005494774
17	0x3b857c91	0.0040736874
18	0x3ce6caf5	0.02817295
19	0x3e6d2bed	0.23161288
20	0x3cdcf93f	0.026974319
21	0x3d10d545	0.03535964
22	0x3cbf3c62	0.023344222
23	0x3d6f0387	0.058352973
24	0x3e8c1894	0.27362502
25	0x3e8bff00	0.27342987
26	0x3e85f82e	0.2616591
27	0x3e78b3d1	0.24287345
28	0x3d404474	0.046940282
29	0x3e7635f1	0.24044015
30	0x3e74a88c	0.2389242
31	0x3d8d935e	0.06912874

MatMul f4 [32, 1536]
0	0xbc3c506b	-0.0114937825
1	0xbc260217	-0.010132334
2	0x3cbb7bdf	0.022886215
3	0x3d1f534d	0.0388978
4	0x3bf69593	0.007525155
5	0xbbcf94f2	-0.0063348943
6	0xbc79dead	-0.015250844
7	0xbbb23a01	-0.0054390435
8	0x3c6bad7f	0.014384626
9	0xb77cb25f	-1.5061901e-05
10	0x3c047d74	0.008086551
11	0x3c854adb	0.016271045
12	0x3cbad7d0	0.022807986
13	0xbbc6c27b	-0.0060656643
14	0x3b98a07c	0.004657803
15	0xb90644d5	-0.00012804878
16	0x3c5fc799	0.013658428
17	0xbcf5a268	-0.029984668
18	0x3c8b231b	0.016984513
19	0x3b3264a6	0.0027220636
20	0x3c31676a	0.0108278785
21	0xbc8c389e	-0.01711684
22	0xbc47dea0	-0.012199074
23	0xbb93d205	-0.0045111203
24	0xbcb3635a	-0.02189796
25	0xbc9314b3	-0.017954206
26	0xbbd230f2	-0.006414526
27	0x3c8b28fa	0.016987313
28	0x3c1d1686	0.00958789
29	0x3c590d57	0.013247809
30	0xbc431036	-0.01190572
31	0x3c216aff	0.00985217
32	0x3b85d495	0.0040841796
33	0x3b86c602	0.00411296
34	0xbbe235dc	-0.006903393
35	0xbc9d3695	-0.019191066
36	0x3c9fc5d1	0.019503506
37	0xbccb2606	-0.024798404
38	0xb7892435	-1.6348533e-05
39	0x3c3ce134	0.011528302
40	0xbc817569	-0.015803056
41	0x3a11f352	0.00055675686
42	0xbb46cce0	-0.0030334517
43	0xbca50306	-0.020143043
44	0x3c6f2893	0.014597076
45	0x3c95cf7d	0.018287415
46	0xbc02a88b	-0.007974754
47	0x3ad8ba1e	0.001653496
48	0x3cb35faf	0.021896211
49	0xbd0fc88b	-0.035103362
50	0xbc3c540e	-0.01149465
51	0xbc6a3ee3	-0.01429722
52	0x3c1aebda	0.009455645
53	0xbc849515	-0.01618437
54	0xbbc35635	-0.0059612044
55	0x3a3f4f8c	0.0007297925
56	0x3a6a2740	0.00089322403
57	0x3cad1b1b	0.021131089
58	0xbbfd3e42	-0.007728369
59	0x3cc44c1d	0.023962075
60	0xbb4a846d	-0.0030901686
61	0xbc4a9ce3	-0.012366506
62	0x3c290ff9	0.01031875
63	0x3c222394	0.009896178
64	0xba68a4c6	-0.0008874651
65	0xbc1d4e67	-0.009601212
66	0x3b06a0e6	0.002054268
67	0x3ba847f8	0.0051355325
68	0x3b6dcc63	0.0036285154
69	0x3c58c93b	0.013231571
70	0x3bae2ed3	0.0053156405
71	0x3cb0b200	0.021569252
72	0xbbe472a0	-0.006971672
73	0xba9a08da	-0.0011751906
74	0x3bdfc7fa	0.006829259
75	0x3c2fffca	0.010742137
76	0x3a7aec49	0.00095719524
77	0x3c8883ea	0.016664464
78	0xbb6d56a9	-0.0036214984
79	0xbaa530e8	-0.0012603076
80	0x3bb03900	0.0053778887
81	0x3c9773f4	0.018487908
82	0x3bb1a3ea	0.0054211514
83	0x3c8b26b4	0.016986229
84	0xbbd897c4	-0.0066098887
85	0x3cbb09cb	0.022831818
86	0x3c1b55b3	0.0094808815
87	0x3c80e20b	0.015732786
88	0xb989aae9	-0.00026258014
89	0x3ca1043a	0.019655336
90	0xbb2c8cc2	-0.0026329015
91	0x3bbae2ca	0.005703305
92	0x3c355764	0.011068199
93	0xbc91822b	-0.017762264
94	0xbc58be6b	-0.013228993
95	0x3c62b7f9	0.013837808
96	0x3bee72ae	0.0072768545
97	0x3b6565ea	0.0035003372
98	0xbcaa7cd2	-0.020811472
99	0x3cd5865e	0.026065048
100	0xbc16e7fa	-0.009210581
101	0x3cae4102	0.021271233
102	0xbc35b07e	-0.011089442
103	0xba35fe11	-0.0006942461
104	0x3c7243e9	0.014786699
105	0x3c2d9a01	0.010595799
106	0xbcc80c1f	-0.024419842
107	0xbbebae9f	-0.0071924473
108	0x3ca83c52	0.020536575
109	0xbc60e956	-0.013727507
110	0xbc842a9d	-0.0161336
111	0xbb4c8427	-0.0031206699
112	0x3be6671c	0.0070313346
113	0xbd43a41e	-0.047763936
114	0xbc876e9c	-0.016532235
115	0xbc63e4d2	-0.0139095355
116	0xbca647c7	-0.020297898
117	0xb9f891ce	-0.0004741088
118	0x3bda744e	0.0066666966
119	0x3ad55706	0.0016276545
120	0x3c1bf785	0.0095194625
121	0xbbe39f63	-0.0069464906
122	0x3add3d89	0.0016879301
123	0x3c99451d	0.018709714
124	0x3bd77671	0.0065753986
125	0x3c0654c8	0.008198924
126	0xbd0ac879	-0.033882592
127	0x3c74c853	0.014940339
128	0xbc5cd96f	-0.013479575
129	0x3c075c1e	0.008261709
130	0xbb1732ae	-0.002307098
131	0x3b937735	0.0045002946
132	0xbb9b1ba6	-0.0047335206
133	0x3c8c9edc	0.017165594
134	0x3c85e825	0.016346047
135	0xbbe6f27e	-0.0070479503
136	0x3c3cbe9d	0.011520055
137	0x3c1af27d	0.009457228
138	0x3cbaaeb8	0.02278839
139	0xbb9923ea	-0.0046734707
140	0x39a48181	0.00031377006
141	0x3c522e13	0.012828368
142	0x3cb5207a	0.022110213
143	0x39f90645	0.00047497652
144	0x3bacff48	0.0052794553
145	0x3c34f12b	0.011043827
146	0xbc95accf	-0.018270878
147	0xbbfd78b4	-0.007735336
148	0x3cb6b164	0.022301383
149	0xbc918e32	-0.017768
150	0xbbe2ea04	-0.0069248695
151	0xbc2c2b12	-0.010508316
152	0xbc74c7a7	-0.014940179
153	0x3bf94d8d	0.0076081217
154	0xbc898834	-0.01678858
155	0x3c490924	0.012270246
156	0xbc5f7e72	-0.013640987
157	0x3c8026c9	0.015643494
158	0xbba6bafb	-0.005088208
159	0x3c542e34	0.012950469
160	0xbc10ee1d	-0.008845833
161	0x3c957892	0.018245969
162	0xbcaecb4a	-0.02133717
163	0xbbae2180	-0.005314052
164	0xbc442922	-0.011972697
165	0x3ce395d8	0.027781412
166	0x3adde560	0.0016929321
167	0xbbde3425	-0.0067811185
168	0xbc56eb0f	-0.013117566
169	0x3b29d4a0	0.0025914088
170	0xbb932a36	-0.004491116
171	0xbcb569d5	-0.022145191
172	0x3b596af9	0.0033175333
173	0x3c9a54ef	0.018839328
174	0x3c6bb7aa	0.014387051
175	0xbcecb633	-0.028895473
176	0x3bf9c09b	0.0076218373
177	0x3badda30	0.005305551
178	0x3b96ef36	0.004606153
179	0xbcd0b182	-0.025475267
180	0x3c09fe9b	0.008422519
181	0x3d1f1f57	0.038848247
182	0x3be8dd24	0.00710644
183	0x3b07e58a	0.0020736181
184	0x3bfc9636	0.007708336
185	0xbc70fbc5	-0.014708464
186	0x3b5c98c2	0.0033660387
187	0xbc8a6cf3	-0.016897654
188	0xbb9769a1	-0.0046207462
189	0x3c2cce5d	0.010547248
190	0xbaceec80	-0.0015787035
191	0xbace22ef	-0.0015726964
192	0xbcdc35fe	-0.026881214
193	0x3c6acfd3	0.014331776
194	0x3c2e1a82	0.010626437
195	0x3bf2cdbd	0.00740978
196	0x3bb789d0	0.0056011453
197	0xbc251158	-0.010074936
198	0x3bec6c68	0.0072150715
199	0xbcb86851	-0.02251068
200	0x3bf62ced	0.00751268
201	0x3c8aea1e	0.016957339
202	0xbaf0d5f5	-0.0018374311
203	0x3bcd62c8	0.006267879
204	0x3c8cf91f	0.017208634
205	0x3b7cc904	0.0038571963
206	0xbbc305d1	-0.005951621
207	0xbc909562	-0.017649356
208	0x3c3ee4cd	0.01165123
209	0xbcc5c712	-0.024142776
210	0x3ae5adc9	0.0017523105
211	0x3bc35112	0.005960592
212	0xbc03cc9e	-0.00804439
213	0x3c2a737c	0.01040351
214	0xbcdfa524	-0.027300425
215	0x3c514ad3	0.012774187
216	0x3c56e20a	0.013115415
217	0xbbca321f	-0.0061705257
218	0x3b5c070e	0.003357354
219	0xbbb7f09e	-0.0056134006
220	0xbc783699	-0.015149736
221	0x3c7f72da	0.015591348
222	0x3bdf192b	0.00680842
223	0x3a7b9273	0.0009596713
224	0x3c0b1aba	0.008490259
225	0x3c85f8cd	0.016353989
226	0x3ab7257b	0.0013972962
227	0xba0b8cc6	-0.0005323406
228	0x3ab05c38	0.0013455218
229	0xbb7ce742	-0.0038589989
230	0xba60e06d	-0.0008578364
231	0x3bb59efa	0.005542633
232	0xbc931903	-0.017956262
233	0x3bd07c58	0.006362479
234	0x3cac7884	0.02105356
235	0x3b6ce2c3	0.0036145903
236	0x3cc4698d	0.023976112
237	0xb99d738f	-0.0003003147
238	0x3b5592ac	0.0032588644
239	0x3c1bfcd2	0.009520726
240	0xbade4cc5	-0.0016960135
241	0x3c6be8ea	0.014398793
242	0xba9d2b2e	-0.0011991018
243	0xbc804e87	-0.015662445
244	0x3d2fd993	0.042932104
245	0xbcfdf31b	-0.03099971
246	0x3bbca783	0.0057572736
247	0x3be006f0	0.0068367645
248	0x3bc1efca	0.0059184777
249	0x3c818bba	0.015813697
250	0xbc8a3971	-0.016873093
251	0x3bae5719	0.0053204414
252	0x3c80da2e	0.015729036
253	0xbc2b425e	-0.010452835
254	0xbc7b0629	-0.015321293
255	0x3b566ee0	0.0032719895

MatMul_1 f4 [32, 32]
0	0xbc198da4	-0.009372149
1	0x3e0b7a7c	0.13620943
2	0xbcd76078	-0.026291117
3	0x3dfa7585	0.12229446
4	0xbdb5f4f1	-0.088846095
5	0xbd85388e	-0.065049276
6	0xbdba3e08	-0.09093863
7	0xbdbdd268	-0.092686474
8	0x3e1378f4	0.14401609
9	0x3da786a5	0.08179978
10	0x3d93c4b8	0.072152555
11	0xbe20b8d8	-0.15695512
12	0x3dd20ac7	0.10255962
13	0xbd5e1f46	-0.054229043
14	0x3e17aa0b	0.1481096
15	0xbdfc538a	-0.12320621
16	0x3e23773b	0.15963452
17	0xbd32529b	-0.04353581
18	0xbcdd2308	-0.026994243
19	0x3b259f20	0.0025271848
20	0x3e0a3882	0.13498119
21	0xbd856d66	-0.06515007
22	0xbc2e36e8	-0.010633208
23	0xbd3f8f70	-0.046767652
24	0xbe144a2a	-0.14481416
25	0x3e0ba900	0.13638687
26	0xbcf2e928	-0.029652193
27	0xbd413c30	-0.04717654
28	0xbddac35f	-0.10681795
29	0xbe1e076e	-0.15432522
30	0x3d2705fc	0.04077719
31	0x3df0c700	0.11756706
32	0xbd52072d	-0.051276375
33	0xbcdb6980	-0.026783705
34	0x3de7002f	0.11279332
35	0xbdb064ed	-0.08613
36	0x3d3fca18	0.04682359
37	0xbe219449	-0.15779223
38	0xbc147f9b	-0.009063627
39	0xbb0baa0f	-0.002131108
40	0x3cad35c3	0.0211438
41	0xbd07da64	-0.033167258
42	0x3c19b4c1	0.009381474
43	0x3d8c4787	0.0684958
44	0x3c8d00fb	0.017212382
45	0x3df21495	0.11820332
46	0xbe119db6	-0.14220318
47	0x3e341bab	0.1758868
48	0x3cd75bad	0.026288832
49	0x3d46c707	0.04852965
50	0x3d9eda58	0.077564895
51	0xbdfabfcf	-0.12243616
52	0x3d2dc52f	0.042424377
53	0xbd8588ac	-0.06520209
54	0x3e0ace1c	0.13555187
55	0x3dc84a0e	0.0977975
56	0x3cf1e10e	0.02952626
57	0xbc998de4	-0.018744417
58	0xbe283462	-0.16426232
59	0x3dfc3a3a	0.12315793
60	0xbd580116	-0.05273541
61	0x3dd8d6c0	0.10587835
62	0xbdc7c47b	-0.097542726
63	0xbd9fded5	-0.07806174
64	0x3d8f141f	0.0698626
65	0x3d2877dc	0.04112993
66	0xbe13fc94	-0.1445182
67	0x3e165ce6	0.14683875
68	0x3e0eb1c4	0.13935
69	0x3dab32dc	0.0835931
70	0x3e15c6fd	0.1462669
71	0x3ba8d6a0	0.0051525384
72	0x3c6a2c1a	0.014292741
73	0x3e16c4a6	0.14723453
74	0x3e1229e2	0.1427379
75	0xbe47525a	-0.19465008
76	0x3e09fde1	0.13475753
77	0xbdd981f0	-0.10620487
78	0xbda3bbcc	-0.07994804
79	0xbd60e875	-0.05490919
80	0x3de85d1e	0.11345886
81	0xbe17764e	-0.14791223
82	0xbd967e24	-0.07348278
83	0x3d32eda1	0.04368365
84	0x3da1ae1d	0.078945376
85	0xbd9dc383	-0.077033065
86	0xbd75f1f2	-0.06004519
87	0x3d88e934	0.06685105
88	0xbe0b9526	-0.13631114
89	0xbcaf9b90	-0.021436483
90	0xbe35a190	-0.17737412
91	0xbdb08217	-0.08618563
92	0xbd957edf	-0.07299589
93	0x3e065378	0.13117778
94	0xbdabb7d2	-0.0838467
95	0xbce963dc	-0.02849
96	0x3dd66723	0.104688905
97	0xbe09de6f	-0.13463758
98	0x3e0018d3	0.1250947
99	0x3d89fce3	0.067376874
100	0xbe379f6a	-0.17931905
101	0x3cdfda13	0.027325666
102	0x3dab5f35	0.08367769
103	0xbdb4540c	-0.08805093
104	0x3bf3bfe8	0.0074386485
105	0xbc796565	-0.015221928
106	0x3c7408d0	0.014894679
107	0xbd4ae84f	-0.049537953
108	0x3d043a67	0.03228226
109	0x3d208fd2	0.039199658
110	0x3dcd60fb	0.10028263
111	0xbd384fb9	-0.044997904
112	0x3e2b073c	0.16701978
113	0xbd48ce7a	-0.049025036
114	0x3def2140	0.11676264
115	0xbdbefedb	-0.093259536
116	0xbe194059	-0.14965953
117	0x3c867250	0.01641193
118	0x3de58e10	0.11208737
119	0xbe0079a7	-0.12546407
120	0xbd88975e	-0.06669496
121	0xbcb70364	-0.022340484
122	0xbe05130d	-0.12995549
123	0x3dde478f	0.108534925
124	0x3cb24b92	0.02176455
125	0x3d890448	0.0669027
126	0x3da69507	0.081338935
127	0xbd1ed1d1	-0.038774315
128	0x3d1ba577	0.037999596
129	0x3c6e6817	0.014551184
130	0x3ca68809	0.020328538
131	0x3d279d5d	0.040921558
132	0xb9f99a71	-0.0004760805
133	0xbde7b620	-0.113140345
134	0xbd0251cc	-0.03181629
135	0x3e01eb5b	0.12687437
136	0xbe2adbe4	-0.16685444
137	0xbddb3d29	-0.10705025
138	0x3e1fe6c9	0.15615381
139	0xbd3468fd	-0.044045437
140	0x3e09b29f	0.13447045
141	0xbdc48805	-0.09596256
142	0x3e5b7f68	0.2143532
143	0x3d2a1b52	0.04152996
144	0x3d94d425	0.07267026
145	0xbc8e00a6	-0.017334294
146	0xbd0d23d5	-0.034458
147	0x3e10ec59	0.1415266
148	0xbce2ec98	-0.027700707
149	0xbddf7d3d	-0.10912559
150	0xbe013a75	-0.12619956
151	0xbe303a65	-0.17209776
152	0x3e44fd06	0.19237146
153	0x3dd54b06	0.104147
154	0x3e2f443c	0.17115873
155	0xbe294144	-0.16528803
156	0xbc966a2b	-0.018361172
157	0xbd078cf4	-0.033093408
158	0xbde22da8	-0.110438645
159	0xbcc19d4b	-0.023634573
160	0xbd5fb4ad	-0.054615665
161	0xbd21f8f3	-0.039544057
162	0x3defb697	0.11704748
163	0xbdc6cdcc	-0.097072214
164	0xbc5c5b27	-0.013449467
165	0x3c289624	0.010289703
166	0xbda291d8	-0.07937974
167	0x3df1c6de	0.11805509
168	0x3c428ebf	0.011874854
169	0xbe4ce749	-0.20010103
170	0x3da64120	0.0811789
171	0xbc4036a3	-0.011731776
172	0xbe500508	-0.2031442
173	0xbe134c31	-0.14384533
174	0xbdff718c	-0.12472829
175	0xbc387453	-0.011258203
176	0xbd8b2106	-0.06793408
177	0x3dbd7989	0.092516966
178	0x3db2a8b3	0.08723583
179	0xbd184732	-0.037177272
180	0x3dbb4a83	0.09145071
181	0xbe0d2825	-0.13784845
182	0xbc71e2dc	-0.01476356
183	0x3daf5b2d	0.08562312
184	0x3d7dad62	0.06193293
185	0x3df3ff25	0.11913899
186	0xbd852983	-0.06502058
187	0xbc7fd171	-0.0156139
188	0x3d99ee35	0.075161375
189	0x3e3c4f0a	0.18389526
190	0xbde6b668	-0.1126526
191	0x3e08446f	0.13307355
192	0xbd11975e	-0.035544746
193	0x3e0f5aef	0.13999532
194	0x3e0d4c26	0.1379858
195	0x3e2fe490	0.17177033
196	0xbdf63d58	-0.12023419
197	0x3c68cb70	0.0142086595
198	0x3dfd44bd	0.123666264
199	0x3d10b822	0.035331853
200	0x3da59c1b	0.080864154
201	0xbddcc85c	-0.10780403
202	0xbd4953ee	-0.049152307
203	0xbc285589	-0.010274299
204	0xbceb5757	-0.02872817
205	0xbd4baf96	-0.049728
206	0x3ccd78fc	0.025082104
207	0x3cf057a5	0.029338667
208	0x3e0a6b79	0.1351756
209	0xbd3d0d8d	-0.0461555
210	0x3c8a3344	0.016870148
211	0x3e1f821e	0.1557698
212	0xbdedda4c	-0.116139024
213	0x3ddce85d	0.10786507
214	0x3ce09962	0.027416889
215	0xbe136c5b	-0.14396803
216	0xbd748428	-0.059696347
217	0xbd71a8fb	-0.058999043
218	0x3d574c12	0.05256278
219	0x3d9225bc	0.071361035
220	0x3d069988	0.032861263
221	0xbe29eddd	-0.16594644
222	0x3b9fe47e	0.0048795333
223	0x3d34fb0b	0.044184726
224	0xbd9cbbb9	-0.07652993
225	0x3da69919	0.0813467
226	0xbdab2761	-0.0835712
227	0xbe18e7ef	-0.14932226
228	0x3d5d7a07	0.054071452
229	0xbb08b26e	-0.0020858306
230	0x3da7ae19	0.08187503
231	0xbd6a9e47	-0.05727985
232	0xbaa42635	-0.0012523594
233	0xbe0e9fda	-0.13928166
234	0x3dcc994d	0.09990177
235	0x3d2794ec	0.040913507
236	0xbe08528d	-0.1331274
237	0xbd760add	-0.060068954
238	0xbc9a8037	-0.018859966
239	0x3d95dba7	0.07317286
240	0x3e14cfd7	0.1453241
241	0x3dd58f42	0.10427715
242	0xbc576715	-0.013147135
243	0x3d9ab568	0.07554132
244	0xbbfd71cc	-0.007734513
245	0xbdabd613	-0.08390441
246	0xbe1dc973	-0.15408878
247	0xbdf66886	-0.12031655
248	0x3d13f074	0.036117986
249	0xbdb41a29	-0.08794052
250	0xbd6c72ad	-0.05772655
251	0x3e156294	0.14588386
252	0x3d8fc370	0.070196986
253	0x3e0c5137	0.13702856
254	0x3dc9e628	0.09858352
255	0x3e0b85db	0.1362528

MatMul_2 f4 [1, 32]
0	0x3d86d442	0.06583454
1	0x3d9e0822	0.07716395
2	0x3e05ce52	0.13066986
3	0x3c9a4fe9	0.018836932
4	0x3e67a62c	0.22621983
5	0xbeb9a482	-0.36258322
6	0x3d5fe010	0.054657042
7	0xbea7e994	-0.32795393
8	0x3e5f7385	0.21821411
9	0x3e271138	0.16315162
10	0x3cff121e	0.031136569
11	0x3e4a4cbd	0.19755836
12	0x3e377d32	0.17918852
13	0x3d51674b	0.0511239
14	0x3da9629a	0.0827076
15	0x3d61ee83	0.055159103
16	0x3dbe2acd	0.09285507
17	0x3cb5755d	0.02215069
18	0x3e3c3ad8	0.18381822
19	0xbeb60705	-0.3555223
20	0x3e03b1d7	0.1286081
21	0x3e111d31	0.14171292
22	0x3e40cec7	0.1882888
23	0xbe2d1d5f	-0.16905735
24	0xbead30f2	-0.33826405
25	0xbea688c1	-0.3252621
26	0xbeac3c1a	-0.33639604
27	0xbeafcbdb	-0.34335217
28	0x3d3c604e	0.04599028
29	0xbeb6be04	-0.35691845
30	0xbeaf2e0c	-0.34214818
31	0x3e3b2a81	0.18277933
