hay_alfred_sensitivity_2.tflite (tflite, 206748 bytes, 9 tensors)

Const_1 f4 [32]
0	0xbcaa92c8	-0.020821944
1	0x3c20fbd2	0.009825664
2	0xbc394142	-0.011307063
3	0xbb427281	-0.00296703
4	0x39ca3693	0.00038569103
5	0xba8096cf	-0.000981057
6	0x3bc050ea	0.0058690207
7	0xbc571668	-0.013127901
8	0x3c15a94f	0.009134605
9	0xbcd26c48	-0.025686398
10	0x39efd086	0.00045740994
11	0x3c0bd031	0.008533523
12	0xbc436fc1	-0.0119285
13	0xbaae7c7d	-0.0013312247
14	0xbc9f6886	-0.01945902
15	0xbcbe9162	-0.023262683
16	0xbc239310	-0.009983793
17	0xbbea7f5a	-0.007156295
18	0x3c31a7ef	0.010843261
19	0x3c7d584f	0.015462949
20	0xbcd1c232	-0.025605295
21	0x3c8bb901	0.01705599
22	0xbcd46ee2	-0.02593178
23	0xbc2df773	-0.0106180785
24	0xbb217ece	-0.0024642232
25	0xbbe703ef	-0.0070500295
26	0xbc3efe72	-0.011657344
27	0xbc6a0894	-0.014284272
28	0xbc930395	-0.017946044
29	0x3c74efd4	0.014949758
30	0xbc21f952	-0.009886103
31	0xbb74d6f2	-0.0037359563

Const_2 f4 [32]
0	0x3f7fceda	0.99925005
1	0x3f7db59d	0.99105245
2	0x3f7fd187	0.9992909
3	0x3f7fe7e7	0.9996323
4	0x3f8a600d	1.0810562
5	0x3f7efe5f	0.9960689
6	0x3f8000c1	1.000023
7	0x3f7dd0e9	0.99146897
8	0x3f7f93a5	0.9983466
9	0x3f8430e9	1.0327426
10	0x3f79f8f7	0.97645515
11	0x3f75adbc	0.9596822
12	0x3f8222f3	1.0166916
13	0x3f830908	1.0237131
14	0x3f7abd27	0.97944874
15	0x3f7fe7b3	0.9996292
16	0x3f7f977e	0.99840534
17	0x3f842fc7	1.032708
18	0x3f7fc27b	0.9990613
19	0x3f8ecb1e	1.1155736
20	0x3f7fa24d	0.99857026
21	0x3f7fabc8	0.9987149
22	0x3f7fd019	0.99926907
23	0x3f82482b	1.0178274
24	0x3f821bb0	1.01647
25	0x3f7e48d7	0.99329895
26	0x3f7ff437	0.9998202
27	0x3f7fb3b9	0.9988361
28	0x3f7fc6b9	0.999126
29	0x3f83793c	1.0271373
30	0x3f82d8d3	1.022242
31	0x3f7fc878	0.99915266

Const_3 f4 [32]
0	0xbb25349a	-0.0025208355
1	0x3ad88903	0.0016520325
2	0xbabf7c84	-0.0014609252
3	0x3af54209	0.0018711697
4	0x3d54acb5	0.05192252
5	0x3b5290b1	0.00321297
6	0x3bae4df1	0.00531935
7	0xbb08085c	-0.0020756936
8	0xbbfe9ef6	-0.0077704145
9	0x3c86b0b7	0.016441686
10	0x3ae98d71	0.0017818642
11	0x3b6f57f0	0.003652092
12	0x3c454380	0.012040019
13	0xb9f91fa5	-0.00047516558
14	0x3b7e6eb9	0.003882332
15	0xb95eebb1	-0.00021259372
16	0xbbfcd1fe	-0.0077154627
17	0x3ca07e56	0.019591492
18	0xbb5ed52f	-0.003400158
19	0x3dea1087	0.114289336
20	0xbbe8a0be	-0.00709924
21	0xbbb4b631	-0.005514883
22	0xba48b5e7	-0.00076565
23	0x3dcc6ea7	0.09982043
24	0x3c988db8	0.018622264
25	0x3c862930	0.016377062
26	0xb9f3be91	-0.00046490555
27	0xbbb59868	-0.00554185
28	0xbaa82b0d	-0.0012830213
29	0x3da0d718	0.07853526
30	0x3cf8b5de	0.030360159
31	0xbaeca77c	-0.0018055285

Const_5 f4 [32]
0	0x3da3f924	0.08006504
1	0xbdd5b703	-0.10435297
2	0x3d67acff	0.056561466
3	0x3dd9d6f5	0.10636703
4	0xbe39e31a	-0.18153039
5	0xbdb8f4d8	-0.09031075
6	0xbdda7f30	-0.1066879
7	0x3d3b090f	0.045662936
8	0xbdd1d37b	-0.10245415
9	0xbc9f3053	-0.019432222
10	0x3e40e603	0.18837743
11	0x3e0e2809	0.1388246
12	0xbdd9693b	-0.10615774
13	0x3da6e765	0.08149604
14	0xbda64981	-0.081194885
15	0x3db44d4d	0.088038065
16	0xbd6d7ef8	-0.057982415
17	0x3d1616ec	0.036642954
18	0x3e1d35ae	0.15352508
19	0x3cc13d63	0.023588842
20	0x3d6a43f9	0.05719373
21	0x3e27b32e	0.16376945
22	0xbe126a66	-0.142984
23	0xbe00deec	-0.12585038
24	0x3c366c55	0.011134227
25	0x3d3f8a7e	0.046762936
26	0xbd657822	-0.05602277
27	0xbe0fa3fa	-0.14027396
28	0x3e07786b	0.1322953
29	0xbd49a561	-0.049229983
30	0xbe03bdd5	-0.12865384
31	0x3ce69e47	0.028151644

Const_6 f4 [32]
0	0x3f80bf8c	1.0058455
1	0x3f7fb333	0.9988281
2	0x3f9c4017	1.2207059
3	0x3f800770	1.000227
4	0x3f980f58	1.1879683
5	0x3f80ea3f	1.0071486
6	0x3f903919	1.1267425
7	0x3f9ccec8	1.2250605
8	0x3f95f1ed	1.1714455
9	0x3f887c22	1.0662882
10	0x3f89a121	1.0752298
11	0x3f889789	1.0671245
12	0x3f7e8418	0.9942031
13	0x3f9b9535	1.2154909
14	0x3f9bad72	1.2162306
15	0x3f84f2ce	1.0386598
16	0x3f807c92	1.0038016
17	0x3fa32edd	1.2748677
18	0x3f87ea86	1.0618446
19	0x3fa2223a	1.2666695
20	0x3f9d5ec4	1.2294545
21	0x3f7fd304	0.9993136
22	0x3f9a2c92	1.2044852
23	0x3f7fcdad	0.9992321
24	0x3f7ecd84	0.9953234
25	0x3f87023b	1.0547556
26	0x3f9d8763	1.2306942
27	0x3f9bfb5d	1.2186085
28	0x3f876751	1.0578405
29	0x3f802d43	1.0013813
30	0x3f7bd1ad	0.98366815
31	0x3fa3e0e9	1.2803012

Const_7 f4 [32]
0	0x3c186ec8	0.009303756
1	0xbad42e48	-0.0016188109
2	0x3e65a7fb	0.2242736
3	0x398e2291	0.00027110105
4	0x3ddcb450	0.107765794
5	0x3c85abc1	0.01631725
6	0x3d7c1cc7	0.06155088
7	0x3e6189fd	0.22025295
8	0x3e1bfc07	0.1523286
9	0x3d20d67c	0.03926705
10	0x3d54f9dc	0.051996097
11	0x3d02fa1d	0.031976808
12	0xbc668c78	-0.014071576
13	0x3e6279e0	0.22116804
14	0x3e5e7e57	0.21727882
15	0x3d32adce	0.043622784
16	0x3c0fd54b	0.00877888
17	0x3e774d89	0.24150671
18	0x3d3c4e9d	0.04597341
19	0x3e73917d	0.23785968
20	0x3e68e4e6	0.22743568
21	0xbaefe0eb	-0.0018301284
22	0x3e588399	0.2114395
23	0xbab79c12	-0.0014008305
24	0xbc26c229	-0.010178127
25	0x3d16cb5c	0.036815032
26	0x3e09ac01	0.1344452
27	0x3e5f5223	0.21808676
28	0x3d3de0d0	0.046356976
29	0x3b351780	0.0027632415
30	0xbd071e9e	-0.032988183
31	0x3e79fb00	0.24412155

MatMul f4 [32, 1536]
0	0xbc6a236c	-0.014290672
1	0xbc5fcc27	-0.013659514
2	0xbccb4ec8	-0.02481784
3	0xbd07dc82	-0.033169277
4	0x3c283560	0.010266632
5	0x3a344f82	0.00068783027
6	0x3c469f04	0.012122873
7	0x3c127eb8	0.008941345
8	0xbcb8c5d3	-0.022555267
9	0x3b1c7560	0.0023873672
10	0x3cb11d90	0.021620542
11	0x3ccc7b2e	0.02496108
12	0xbbb4ccd9	-0.005517584
13	0xbc6220de	-0.013801781
14	0x3c9e00cd	0.019287491
15	0xbb80d57f	-0.0039317007
16	0x3a51ca91	0.0008002902
17	0x3cdebba5	0.027189085
18	0xb9ec228f	-0.00045039176
19	0x3bfc22a7	0.0076945606
20	0xbcccac1a	-0.024984408
21	0xbc4fcef3	-0.012683618
22	0xbc817e14	-0.015807189
23	0x3c9b279e	0.01893979
24	0xbc57e856	-0.013177952
25	0x3b0dc07d	0.0021629625
26	0x3c67b683	0.014142635
27	0xbc9667db	-0.018360069
28	0xbc1ba3aa	-0.00949947
29	0xbbde95b8	-0.00679275
30	0xbc3142b1	-0.010819123
31	0x3a0e72f1	0.0005433998
32	0x3badafad	0.005300483
33	0xbc952581	-0.01820636
34	0x3b3225a4	0.002718308
35	0x3c9bc18b	0.019013187
36	0xbc47f9a5	-0.012205516
37	0x3bd8eaf4	0.0066198055
38	0x3c206f48	0.0097921565
39	0xbc2c4388	-0.010514148
40	0xbc53de37	-0.012931398
41	0xbaccfabc	-0.001563869
42	0xbca426e7	-0.020038081
43	0xbbb8b5a0	-0.0056368858
44	0xbcd746fe	-0.026278969
45	0x3c2ce54d	0.010552716
46	0x3c49fe66	0.01232872
47	0xbc8ab92c	-0.016934
48	0x3bf880ff	0.007583737
49	0x3c9abc67	0.018888665
50	0x3ca2f239	0.019890891
51	0x3b28a4cc	0.0025732992
52	0xbd046d15	-0.03233059
53	0x3cde1a39	0.027112113
54	0x3b163989	0.0022922477
55	0x3ad5a6cc	0.001630032
56	0x38bee85d	9.103187e-05
57	0xbce53bc6	-0.027982604
58	0x3b470de2	0.0030373265
59	0x3bf54b53	0.007485786
60	0x3c46f075	0.01214229
61	0x3c33e645	0.0109801935
62	0x3ca5ad28	0.020224169
63	0x3aa63d18	0.0012683002
64	0x3c847c7f	0.016172646
65	0x3cde1847	0.027111186
66	0xbb8fce6a	-0.00438862
67	0xbc4e0970	-0.012575492
68	0x3cabc762	0.020969097
69	0x3cf3856a	0.029726703
70	0xbc423be9	-0.011855104
71	0x3c56d01c	0.013111141
72	0xba548148	-0.00081064226
73	0x3c83a2bb	0.016068807
74	0xbb966e0f	-0.0045907567
75	0x3c421dcc	0.011847924
76	0x3c1be0ce	0.009514047
77	0xbac789a7	-0.0015223519
78	0x3c81e072	0.015854094
79	0x3ce02515	0.027361432
80	0xbcc77644	-0.024348386
81	0xbb96f5ec	-0.004606953
82	0xbbfecd9a	-0.0077759745
83	0x3cc7f2e6	0.024407815
84	0x3ba7841c	0.005112184
85	0xbc0a2895	-0.008432527
86	0x3c1aa6ff	0.009439229
87	0x3c044f54	0.008075554
88	0xbc70fddd	-0.014708963
89	0xbcdaf3a3	-0.026727503
90	0x3cb198eb	0.021679362
91	0x3beade53	0.0071676164
92	0x3aad83f6	0.001323818
93	0xbc2c8e74	-0.01053201
94	0x3cdcef6e	0.026969638
95	0xbcc222fb	-0.02369832
96	0x3cd234c3	0.025659924
97	0x3c4d8bb5	0.012545516
98	0xbc0cca00	-0.008593082
99	0x3c1d5e0c	0.009604942
100	0xbc8680ba	-0.016418803
101	0xba05ae3d	-0.0005099511
102	0xbbef27c0	-0.0072984397
103	0xbc787ebf	-0.015166937
104	0xbc5caf76	-0.0134695675
105	0xbc5713b3	-0.013127255
106	0xbc6c0c99	-0.0144073
107	0xbbabb31e	-0.0052398583
108	0x3bfd7da8	0.0077359267
109	0xbcaf7faa	-0.02142318
110	0x3c409046	0.0117531475
111	0x3c147f32	0.009063529
112	0x3cc88255	0.02447621
113	0x3c66ecd6	0.014094552
114	0xbb7f47e0	-0.0038952753
115	0xbbcc6fb6	-0.006238903
116	0xbbae7c59	-0.005324882
117	0xbc162e43	-0.009166303
118	0x3ccce7a0	0.025012791
119	0xbba3b0f1	-0.0049954583
120	0xbc6e1784	-0.014531974
121	0xbb78e774	-0.0037979754
122	0x3c4ce265	0.012505149
123	0xbc5c539b	-0.0134476675
124	0xb89828c6	-7.2555194e-05
125	0xb9fb0e55	-0.0004788513
126	0x3a99730d	0.0011707261
127	0x3c642f05	0.013927226
128	0x3c0017c2	0.007818164
129	0xbb06faa0	-0.0020596161
130	0xbcb0c896	-0.021580022
131	0xbbb718a8	-0.005587656
132	0x3c75fdaa	0.0150140915
133	0x3cc6b2fb	0.024255266
134	0xbc753139	-0.014965349
135	0xbc37288f	-0.0111791035
136	0x3c59c1da	0.013290847
137	0xbc9df7b0	-0.019283146
138	0xbc97da41	-0.018536689
139	0xbbd8815b	-0.0066072172
140	0xbcd352e0	-0.025796354
141	0x3c8b9fbe	0.017043944
142	0x3c93a163	0.018021291
143	0xbb961820	-0.0045805126
144	0x3c07430e	0.008255733
145	0xbc66bdd4	-0.0140833445
146	0xbc61ce7c	-0.01378214
147	0xbbea3f8e	-0.0071486896
148	0x3c45ce76	0.01207315
149	0x3cff1e86	0.031142484
150	0x3cddea72	0.027089331
151	0x3c9a4ba2	0.018834893
152	0x3c08a9ea	0.008341292
153	0xbcc45bd5	-0.02396957
154	0xbc3a8ddc	-0.011386361
155	0xbcbcfe1e	-0.023070391
156	0x3cc72551	0.024309786
157	0xbbee1a03	-0.0072662844
158	0x3c0c0842	0.008546891
159	0xbb8e4155	-0.0043412843
160	0x3b2725ba	0.0025504665
161	0xbbd72775	-0.006565983
162	0x3cf2328f	0.029565124
163	0xbc54ce19	-0.012988591
164	0xbba57b77	-0.0050501185
165	0x3cc4cdbd	0.024023885
166	0xbaafee9c	-0.0013422552
167	0x3c0105c5	0.007874911
168	0x3cfde2c6	0.030991923
169	0x3cd56c4b	0.026052615
170	0xbc5b9546	-0.013402289
171	0xbc843f9a	-0.016143609
172	0x3cd21159	0.025643038
173	0x3cb1c730	0.021701425
174	0xbb94c830	-0.004540466
175	0x3ca1e4f9	0.019762503
176	0xba6d2042	-0.00090456393
177	0xbc55b51a	-0.013043666
178	0x3c494188	0.01228369
179	0xbbd917be	-0.0066251447
180	0xbce6c9ce	-0.0281724
181	0xbc3ee32a	-0.01165084
182	0xbc918d3c	-0.017767541
183	0xbc725901	-0.014791728
184	0xbcb1f94b	-0.021725317
185	0xbc013a61	-0.007887454
186	0x3c233143	0.009960475
187	0xbc190733	-0.009340095
188	0xbc8699e0	-0.016430795
189	0xbb997713	-0.004683384
190	0xbc4b9474	-0.012425531
191	0xbc601df1	-0.013679014
192	0x3b293614	0.0025819587
193	0xbcb6a07a	-0.022293318
194	0xbc8f7550	-0.017511994
195	0x3c56debe	0.013114629
196	0x3b025036	0.0019884235
197	0x3b86b05e	0.00411038
198	0x3cc10308	0.023561016
199	0xbc03054f	-0.007996871
200	0xbcb506f9	-0.022098051
201	0xbcc427bb	-0.023944726
202	0x3c2ec1be	0.010666309
203	0x3cc740f1	0.024322959
204	0xba94a8e4	-0.0011341837
205	0xbcb651ff	-0.022255896
206	0x3c488d46	0.012240713
207	0x3bab0e17	0.0052201855
208	0x3bacf5e7	0.0052783373
209	0x3c55b75c	0.013044205
210	0x3c85ac31	0.016317459
211	0x3cd8ceba	0.026465762
212	0x3c976f4a	0.018485684
213	0x3b9c2a7e	0.0047658077
214	0x3b28b77f	0.0025744138
215	0x3cc88311	0.02447656
216	0x3bd2fb3e	0.006438642
217	0x3b58e108	0.0033093113
218	0xbc98cfdf	-0.018653808
219	0xbc6b3939	-0.014356905
220	0xb99a3619	-0.00029413475
221	0xbc6aa0c7	-0.014320559
222	0x3c2ec3ca	0.010666797
223	0xbcb6dc47	-0.022321833
224	0x3cddceb3	0.0270761
225	0xbb0a5c10	-0.0021112002
226	0x3b5f2400	0.0034048557
227	0xb998bfcf	-0.00029134608
228	0xbcc45bd8	-0.023969576
229	0xbc823280	-0.01589322
230	0xbcc51f2f	-0.024062721
231	0xbcddee03	-0.027091032
232	0x3cb183d3	0.021669304
233	0xbcb419ad	-0.0219849
234	0xbc9775e4	-0.018488832
235	0xbbb4c642	-0.0055167982
236	0xbc6a91ca	-0.014316985
237	0xbc64a784	-0.013955954
238	0xbcc4504c	-0.02396407
239	0x3c8f335d	0.017480547
240	0x3c91d893	0.017803466
241	0x3c93b10b	0.018028757
242	0xbc9ee988	-0.019398466
243	0x3bf59c8d	0.007495469
244	0xbbd98236	-0.006637837
245	0xbc76a4f7	-0.015053979
246	0xbcb80809	-0.022464769
247	0x3c3e3445	0.011609142
248	0x3c8ddd50	0.017317444
249	0x3c41c44b	0.011826585
250	0x3b9d53a8	0.0048012324
251	0x3c1b2265	0.0094686495
252	0x3c0ebd99	0.008712196
253	0x3c3e2e1f	0.011607676
254	0xbbc65160	-0.006052181
255	0xbc81650e	-0.015795257

MatMul_1 f4 [32, 32]
0	0xbd117f27	-0.035521653
1	0x3df3d5e5	0.119060315
2	0xbe20e857	-0.1571363
3	0x3d7d2fd1	0.06181318
4	0xbe0d0359	-0.13770808
5	0xbae8fedf	-0.0017776153
6	0x3d53c625	0.051702637
7	0x3db587b2	0.088637725
8	0x3cf7698b	0.030201694
9	0x3c459270	0.012058839
10	0xbd92654b	-0.07148226
11	0x3df172fb	0.11789509
12	0xbd12af21	-0.035811547
13	0xbd82f97c	-0.063952416
14	0x3b5a8063	0.0033340685
15	0xbdd8a39e	-0.105780825
16	0x3b1aa9bd	0.0023599707
17	0x3d2e6380	0.04257536
18	0x3d3da90a	0.046303786
19	0x3e43b843	0.19113259
20	0x3d182eb6	0.037153922
21	0xbd7818c2	-0.060570486
22	0x3e3017eb	0.17196624
23	0xbd0f2f30	-0.03495711
24	0xbe06c69b	-0.131617
25	0xbe0497ef	-0.12948583
26	0xbd7bbb7a	-0.06145809
27	0x3daef2bd	0.085423924
28	0xbd75661e	-0.05991184
29	0x3da7dbaa	0.081961945
30	0x3d66d864	0.05635871
31	0x3e05b8e3	0.1305881
32	0xbdb70739	-0.089369245
33	0xbd74282e	-0.05960863
34	0xbe281ea1	-0.16417934
35	0xbd2336cb	-0.039847177
36	0x3d2a3eab	0.04156367
37	0x3dbd2804	0.09236148
38	0x3ddbb91b	0.107286654
39	0xbd9d9ad1	-0.076955445
40	0xbd54b63c	-0.051931605
41	0xbc3d115c	-0.011539783
42	0x3e064900	0.13113785
43	0x3d58eb9e	0.052959077
44	0xbe27bfeb	-0.16381805
45	0x3cc42783	0.023944622
46	0x3e0bab12	0.13639477
47	0xbe2a8866	-0.16653594
48	0x3d494202	0.049135216
49	0xbe0689c0	-0.13138485
50	0xbdc112fc	-0.09427449
51	0xbded0b38	-0.115744054
52	0xbe1a308c	-0.15057582
53	0x3dca6868	0.09883195
54	0x3cf07e11	0.029356988
55	0xbd87cb88	-0.066306174
56	0x3d7fe7fd	0.0624771
57	0xbdf055d0	-0.117351174
58	0xbd9ef8c6	-0.077622935
59	0xbd266d37	-0.0406315
60	0xbdf82b21	-0.12117601
61	0x3d2005ee	0.039068155
62	0x3d89dad0	0.06731188
63	0x3dc9ec9a	0.09859581
64	0x3e0b4899	0.13601913
65	0x3de0c799	0.1097557
66	0xbdca7860	-0.09886241
67	0x3c9fda15	0.01951317
68	0xbdac8910	-0.0842458
69	0xbd500f0e	-0.050795607
70	0x3d2f8ce3	0.04285897
71	0x3db8232f	0.08991086
72	0xbc254cee	-0.010089142
73	0x3de8a249	0.113590784
74	0xbca3b71f	-0.01998478
75	0x3be042e0	0.0068439096
76	0x3de0ea67	0.10982209
77	0x3d625bdc	0.055263385
78	0x3e2dfef7	0.16991793
79	0xbdaee18b	-0.08539113
80	0xbc449b86	-0.01199997
81	0x3cbbd116	0.022926848
82	0xbd8f6d97	-0.070033245
83	0x3cdf1299	0.027230548
84	0xbc9a84f2	-0.018862221
85	0x3e082cac	0.13298291
86	0xbcdc33a7	-0.026880099
87	0x3df48ac5	0.11940531
88	0x3e107be0	0.14109755
89	0xbdb13efb	-0.08654591
90	0x3d23a294	0.03994997
91	0x3e1ff04c	0.1561901
92	0xbc3d9d9e	-0.011573223
93	0xbd981941	-0.07426692
94	0xbdaacfc5	-0.0834041
95	0x3e067c88	0.13133442
96	0xbd1aa7b0	-0.037757576
97	0x3d98c4e7	0.07459431
98	0xbdebd719	-0.11515636
99	0x3de8e869	0.11372454
100	0x3b0a7936	0.0021129376
101	0xbcef1513	-0.029184854
102	0xbe243e82	-0.1603947
103	0xbd9fa9c0	-0.07796049
104	0x3d6caaa1	0.057779912
105	0xbd944132	-0.072389975
106	0x3ac2ee8a	0.0014872116
107	0xbdae66fa	-0.08515735
108	0x3c0c7faf	0.008575364
109	0xbe0983be	-0.13429162
110	0xbd7ccbba	-0.061717726
111	0xbe07b2d5	-0.13251813
112	0x3d53bd03	0.051693927
113	0xbd8d67f2	-0.069045916
114	0xbd1f0bff	-0.0388298
115	0x3ccdba95	0.025113383
116	0xbd8680c8	-0.06567532
117	0x3d664173	0.05621476
118	0xbb650723	-0.003494688
119	0x3d92e9ac	0.071734756
120	0xbd159886	-0.03652241
121	0x3b812bfd	0.0039420114
122	0xbd65999e	-0.056054704
123	0xbd8332d4	-0.06406179
124	0xbe13b340	-0.14423847
125	0xbd55e4eb	-0.052220266
126	0xbccf5edd	-0.025313789
127	0xbb9e6c9a	-0.0048347237
128	0xbe333904	-0.17502218
129	0x3d639c27	0.05556884
130	0xbc26edd0	-0.010188535
131	0x3dbc32d0	0.09189379
132	0x3e2d6b27	0.16935407
133	0xbd8cc355	-0.06873194
134	0xbe07676a	-0.13223043
135	0xbe2c7d39	-0.16844644
136	0xbcd38414	-0.025819816
137	0x3e60a4ae	0.2193782
138	0x3cee17bd	0.029064054
139	0x3d4b5bff	0.04964828
140	0x3d87063a	0.065929845
141	0xbe112673	-0.14174823
142	0xbdf0b3cb	-0.11753043
143	0x3bb4ebc7	0.005521271
144	0xbd2f8d76	-0.042859517
145	0x3e0f8f8e	0.14019606
146	0x3db3ec34	0.087852865
147	0x3d6f01de	0.05835139
148	0x3dfd5588	0.123698294
149	0xbe036a00	-0.12833405
150	0xbd5cfda4	-0.053952828
151	0x3e4f347b	0.20234863
152	0xbd5ea7a0	-0.05435908
153	0xbccc0a3d	-0.024907226
154	0xbe186231	-0.14881207
155	0xbd100269	-0.03515855
156	0x3d24e28d	0.04025512
157	0x3e3f1c3a	0.18663111
158	0x3d90c021	0.07067896
159	0x3e27fcae	0.16404983
160	0xbdd9dfbe	-0.106383786
161	0xbdd00906	-0.10157971
162	0x3d27b2a0	0.040941834
163	0x3c84205a	0.016128708
164	0x3d93b5e3	0.072124265
165	0xbcbeedda	-0.023306776
166	0xbe3a7084	-0.18206984
167	0x3d80e2a6	0.0629323
168	0x3e0fb69d	0.14034505
169	0x3dcc060b	0.0996209
170	0xbd2b0ef2	-0.0417623
171	0xbd644cc4	-0.055737272
172	0x3d1b8e55	0.037977535
173	0xbcba58cc	-0.02274742
174	0xbdd79410	-0.105262876
175	0x3cecdfb2	0.02891526
176	0xbe1ef1c6	-0.15521917
177	0x3d9ce73c	0.07661292
178	0x3d3054b7	0.04304954
179	0xbdce5c37	-0.10076182
180	0xbb0862f2	-0.002081093
181	0x3e119292	0.14216068
182	0xbdf3033a	-0.1186585
183	0xbdbc6cb4	-0.09200421
184	0xbcefc580	-0.02926898
185	0xbe08cf86	-0.13360414
186	0x3de92021	0.11383081
187	0xbdff98a5	-0.124802865
188	0x3d76881d	0.0601884
189	0xbdf88dbc	-0.12136409
190	0x3b50ed80	0.0031879842
191	0xbe07f2e6	-0.13276252
192	0x3d772039	0.060333464
193	0xbde1a21a	-0.110172465
194	0x3d31df98	0.043426126
195	0xbdde908c	-0.10867414
196	0xbd33c957	-0.043893185
197	0x3dc7d92c	0.09758219
198	0x3dd54e21	0.104152925
199	0x3e1aca32	0.15116194
200	0xbe2596b3	-0.16170768
201	0x3da09ede	0.078428015
202	0xbe0a4c7f	-0.13505743
203	0xbd06adf6	-0.032880746
204	0x3e06c6bf	0.13161753
205	0xbd73920c	-0.059465453
206	0xbe243a52	-0.16037872
207	0x3d58a2f7	0.05288979
208	0xbde32253	-0.11090531
209	0x3e2ac4af	0.16676591
210	0xbd01e2f5	-0.031710584
211	0xbd2e4367	-0.04254475
212	0xbd7166ea	-0.058936037
213	0xbd534faa	-0.051589645
214	0x3e30f7e2	0.1728206
215	0x3d3a2d6f	0.045453485
216	0xbc5a5833	-0.013326692
217	0xbd1af65b	-0.0378326
218	0x3d2e362a	0.042532124
219	0xbdbb047a	-0.09131713
220	0xbd0894e6	-0.033345126
221	0x3d1f5b9f	0.038905736
222	0xbcc3a780	-0.023883581
223	0xbd992731	-0.07478178
224	0xbd80cf6b	-0.06289562
225	0x3e3b16a7	0.1827036
226	0xbdbcbc1a	-0.09215565
227	0x3e1b3c8e	0.15159819
228	0xbb21ef31	-0.002470922
229	0x3de802dc	0.113286704
230	0x3cd12182	0.025528673
231	0xbdffbc9b	-0.124871455
232	0x3d1f7259	0.03892741
233	0xbe5a315a	-0.21307889
234	0xbe0ad6a4	-0.13558441
235	0x3dec4a62	0.11537625
236	0xbd2dca43	-0.04242922
237	0x3e410a4a	0.18851581
238	0xbd3386ce	-0.04382973
239	0xbd9a6c96	-0.075402424
240	0xbe110251	-0.1416104
241	0xbe36cc73	-0.17851429
242	0x3e26d1ec	0.16291016
243	0x3d1d0ee3	0.038344275
244	0xbe1d52c8	-0.1536361
245	0xbcec76c7	-0.028865231
246	0xbc1713ec	-0.009221058
247	0xbd043f69	-0.032287035
248	0x3e35a1a5	0.17737444
249	0xbe105756	-0.14095816
250	0x3e243ada	0.16038075
251	0x3d9a6362	0.07538487
252	0xbc62749c	-0.013821747
253	0x3db8f9f9	0.090320535
254	0xbdb8ea5b	-0.09029075
255	0x3e227b87	0.15867434

MatMul_2 f4 [1, 32]
0	0xbcd33a82	-0.025784735
1	0xbe0c4d60	-0.13701391
2	0xbe9f2cec	-0.3108896
3	0xbd8a4bd3	-0.067527436
4	0x3e82c930	0.2554412
5	0x3d1e7534	0.038685992
6	0x3dd31f44	0.10308698
7	0xbeaf8fd2	-0.34289414
8	0x3ea0c89e	0.3140306
9	0x3e10d6be	0.14144418
10	0x3e29ebf2	0.16593912
11	0x3e3f4bb6	0.18681225
12	0xbda78a66	-0.08180694
13	0xbea8e2dc	-0.3298558
14	0xbeb6ffe5	-0.35742107
15	0x3e0e5c1a	0.13902321
16	0xbd15fdc0	-0.036618948
17	0xbea1ae83	-0.31578454
18	0x3e6cc461	0.23121788
19	0xbea520a5	-0.32251468
20	0xbea0d10d	-0.31409493
21	0xbd1e68cc	-0.03867416
22	0xbeb6ddd2	-0.3571611
23	0x3d64cf20	0.055861592
24	0xbdc81117	-0.09768885
25	0x3e6a6218	0.22888982
26	0x3e4b5671	0.19857194
27	0xbeb50cd3	-0.35361347
28	0x3dfd28dd	0.1236131
29	0x3b54a1fa	0.0032445178
30	0xbdc9f0ea	-0.09860404
31	0xbea3670f	-0.31914565
