hay_al_fred_30000_15000_1500.tflite (tflite, 206748 bytes, 9 tensors)

Const_1 f4 [32]
0	0xbc050792	-0.008119481
1	0xbc400ff1	-0.011722551
2	0x3ca19917	0.01972632
3	0x3c94e3cf	0.018175034
4	0xbcba44d9	-0.022737907
5	0x3ca5a952	0.02022234
6	0xbb237832	-0.0024943468
7	0xbc0b0e69	-0.008487322
8	0xbc260bfb	-0.010134692
9	0xbcc464a2	-0.023973767
10	0xbc9afe6b	-0.018920144
11	0x3ad866af	0.0016510094
12	0xbc63ec32	-0.013911294
13	0x3c162da4	0.009166155
14	0x3cab72d5	0.02092878
15	0xbc29b270	-0.010357484
16	0xbcb0ea16	-0.021595996
17	0x3ce311ea	0.027718503
18	0x3c3295bc	0.010899957
19	0xbc85a9b5	-0.016316274
20	0xbcc5fbbf	-0.024167893
21	0xbcc4b5db	-0.024012497
22	0xbb8636a4	-0.004095869
23	0x3cda70a0	0.026665032
24	0xbc147d4b	-0.009063075
25	0xbc374ce4	-0.011187766
26	0x3d057061	0.032577876
27	0x3cd07202	0.025444988
28	0xbb80bd6a	-0.00392883
29	0x3b1f69c1	0.002432451
30	0xbc6c0090	-0.014404431
31	0x3bc0276d	0.005864075

Const_2 f4 [32]
0	0x3f7a55d1	0.97787195
1	0x3f706c46	0.9391521
2	0x3f7c8611	0.9864207
3	0x3f808a76	1.0042255
4	0x3f7d58a4	0.9896338
5	0x3f7db099	0.9909759
6	0x3f873fad	1.0566307
7	0x3f7f79ba	0.99795115
8	0x3f7f926e	0.9983281
9	0x3f81020f	1.0078753
10	0x3f779097	0.96705
11	0x3f7f1c94	0.9965298
12	0x3f7f8297	0.9980864
13	0x3f78c8b9	0.9718128
14	0x3f785799	0.97008663
15	0x3f86b981	1.0525361
16	0x3f802f23	1.0014385
17	0x3f7d750e	0.99006736
18	0x3f7f2a03	0.9967348
19	0x3f80a701	1.0050966
20	0x3f7fffce	0.999997
21	0x3f76b485	0.963692
22	0x3f8b558b	1.0885481
23	0x3f75f0f9	0.9607082
24	0x3f80afac	1.0053611
25	0x3f7ff2d4	0.999799
26	0x3f8113ce	1.0084169
27	0x3f78534f	0.9700212
28	0x3f81664f	1.0109347
29	0x3f7f96ff	0.99839777
30	0x3f7ab39a	0.979303
31	0x3f7fbac3	0.9989435

Const_3 f4 [32]
0	0xbb8bda96	-0.004268001
1	0x3b6a5d15	0.0035761048
2	0xbc0e1f18	-0.0086744055
3	0xbc69a74b	-0.014261077
4	0xbceec888	-0.029148355
5	0xbc44f03b	-0.012020166
6	0x3de8153a	0.11332174
7	0xbc137e1f	-0.009002238
8	0xbc240f9d	-0.010013488
9	0x3b42422d	0.0029641495
10	0x3bb8d14f	0.005640186
11	0x3a9096e3	0.0011031296
12	0xbc0f8633	-0.008760023
13	0x3ca57762	0.020198528
14	0xbc07523e	-0.008259354
15	0x3c1c2a3a	0.009531552
16	0xbb685c89	-0.0035455546
17	0x3c1209d7	0.008913479
18	0xbc42cdd6	-0.011889895
19	0x3aaa35b0	0.0012985971
20	0x37efe06e	2.8595528e-05
21	0xbbf155f6	-0.0073649837
22	0xbbdbf392	-0.0067123855
23	0x3bfc9aa7	0.0077088657
24	0x3b66b63c	0.0035203835
25	0xb855c035	-5.0962164e-05
26	0x3d166107	0.036713626
27	0xbb193ba2	-0.0023381491
28	0x3c241a38	0.010016017
29	0xbc121bee	-0.008917792
30	0x3c0bd21d	0.008533982
31	0xbb8100d5	-0.0039368668

Const_5 f4 [32]
0	0xbd8170e5	-0.06320361
1	0xbcf942fc	-0.030427448
2	0x3b3e8278	0.0029069465
3	0x3e1b2530	0.15150905
4	0xbc36b793	-0.011152166
5	0xbd89bbcf	-0.06725275
6	0xbd7a4c13	-0.061107706
7	0x3b964a0e	0.0045864647
8	0x3d9b9d67	0.075983815
9	0x3d978fee	0.07400499
10	0x3e2ffb97	0.17185818
11	0xbd33f9cb	-0.043939393
12	0x3e1a8dc9	0.15093149
13	0x3df48c2b	0.119407974
14	0xbe0d21cc	-0.13782424
15	0xbb91a11d	-0.004444255
16	0x3c94914e	0.018135693
17	0x3d6054bd	0.054768313
18	0x3d45f2a4	0.048327103
19	0x3c1bc1df	0.009506672
20	0xbd418e11	-0.047254626
21	0xbdd246a2	-0.102673784
22	0xbd864495	-0.0655605
23	0xbd1d61c4	-0.038423315
24	0xbe260ff3	-0.16217022
25	0xbd457aa1	-0.04821265
26	0xbde74e49	-0.112942286
27	0xbd587411	-0.052845065
28	0xbd55bdcd	-0.05218296
29	0x3e217da7	0.15770589
30	0x3e1b3259	0.15155925
31	0x3c6a3c93	0.014296669

Const_6 f4 [32]
0	0x3f8010d4	1.0005136
1	0x3f9b6977	1.214156
2	0x3fa81346	1.3130882
3	0x3f9f4fe7	1.2446259
4	0x3fb45e0b	1.40912
5	0x3f93e628	1.1554613
6	0x3fa5dba4	1.2957654
7	0x3f8f0eef	1.1176432
8	0x3f883ea2	1.0644114
9	0x3f7f9593	0.9983761
10	0x3f9c4fd8	1.2211866
11	0x3fa372c3	1.2769397
12	0x3f7008be	0.9376334
13	0x3f82147c	1.0162501
14	0x3f7f46f6	0.9971765
15	0x3f92ffb6	1.1484287
16	0x3f9f7243	1.2456745
17	0x3f71e688	0.9449239
18	0x3f91d23e	1.1392286
19	0x3f88dde8	1.069272
20	0x3f7f8911	0.9981852
21	0x3f9e0776	1.2346027
22	0x3f7f94cb	0.99836415
23	0x3f810f61	1.0082818
24	0x3f9bc192	1.2168448
25	0x3f804ba7	1.0023087
26	0x3f8003e2	1.0001185
27	0x3f752fb1	0.95775896
28	0x3f7f1028	0.9963403
29	0x3fa06f2d	1.2533928
30	0x3f769206	0.96316564
31	0x3f88ebf7	1.0697011

Const_7 f4 [32]
0	0xb9d31580	-0.00040261075
1	0x3e6a677e	0.22891042
2	0x3e8be5ed	0.27323857
3	0x3e7d9e4d	0.24767418
4	0x3ea01706	0.31267565
5	0x3dbb4e1f	0.0914576
6	0x3e86237d	0.2619895
7	0x3db8f65d	0.09031365
8	0x3d12dcb9	0.03585503
9	0xbb809e16	-0.0039250953
10	0x3e6b76cd	0.22994538
11	0x3e8320f1	0.2561107
12	0xbd4cb05a	-0.04997287
13	0x3cfb182f	0.03065118
14	0xbbb995ff	-0.005663633
15	0x3dd79afd	0.105276085
16	0x3e7ae9f0	0.24503303
17	0xbd8c2931	-0.06843794
18	0x3dadecad	0.08492408
19	0x3d2d2cb7	0.04227897
20	0xbb392734	-0.0028252127
21	0x3e3d4ab6	0.18485531
22	0xbb44b5ab	-0.003001551
23	0x3c3e542b	0.011616747
24	0x3e7f3236	0.24921498
25	0x3c44e8e1	0.012018413
26	0xbbe4f63e	-0.006987362
27	0xbd8ea9cc	-0.0696598
28	0xbbefb698	-0.007315468
29	0x3e806250	0.25075006
30	0xbd83d3a0	-0.06436849
31	0x3d7cb3b0	0.0616948

MatMul f4 [32, 1536]
0	0x3b3758eb	0.0027976583
1	0x3c94be5c	0.018157177
2	0x3bb837fd	0.0056219087
3	0x3c34deed	0.011039478
4	0x3a209d43	0.00061269494
5	0x3c2e82d4	0.010651309
6	0x3c9cabf1	0.019124957
7	0x3b98c7e1	0.0046624993
8	0x3c377287	0.011196739
9	0xbb53acdf	-0.0032299084
10	0xbc9f2a35	-0.019429306
11	0xbbd0c8d1	-0.0063715954
12	0x3cad6637	0.021166904
13	0xbbaae2bb	-0.0052150167
14	0xbca8673c	-0.020557038
15	0x3c3a6a15	0.011377831
16	0x3c3fcc92	0.011706488
17	0xbc61ebe4	-0.013789151
18	0xbc2c03ef	-0.010498985
19	0x3c0cc436	0.008591702
20	0xbc18a296	-0.009316107
21	0xbc10bcb9	-0.0088340575
22	0x3bb82534	0.0056196693
23	0x3c2386bc	0.009980854
24	0xbbc1c40e	-0.005913264
25	0xbc380a54	-0.011232931
26	0xbb07f330	-0.0020744316
27	0x3be6084d	0.0070200325
28	0x3bb64e6c	0.005563548
29	0x3c8d9d4a	0.017286915
30	0xbc501750	-0.012700871
31	0x3c464306	0.012100941
32	0xbc449569	-0.011998513
33	0xbc949493	-0.018137252
34	0xbbd8cb06	-0.006615999
35	0x3c9347bd	0.017978543
36	0x3cb03657	0.021510286
37	0xbc4fcf96	-0.01268377
38	0xbccabcd4	-0.024748243
39	0x3c134299	0.008988046
40	0x3c97f1d0	0.018547922
41	0xbba31121	-0.004976407
42	0x3c2a24d7	0.01038476
43	0xbc97003d	-0.01843273
44	0xbc685c15	-0.01418211
45	0xbc2ff652	-0.01073988
46	0xbb607bf6	-0.0034253574
47	0xbbe50642	-0.0069892714
48	0xbbf11d1c	-0.0073582064
49	0xbc06fa9e	-0.008238463
50	0xbb86f3d9	-0.0041184244
51	0x3c10ebd7	0.008845291
52	0x3ab9136b	0.0014120167
53	0xbcde8980	-0.027165174
54	0xbba8b8af	-0.005148969
55	0xbb6fd2f1	-0.0036594237
56	0x3acc4613	0.0015584849
57	0xbb8a1e83	-0.004215063
58	0xbc1762f0	-0.009239897
59	0x392fd0f8	0.00016767147
60	0x3b3025f9	0.0026878102
61	0x3ba8bd9c	0.0051495563
62	0x3ad629bc	0.0016339342
63	0xbc265074	-0.010151017
64	0xbc52e90a	-0.012872944
65	0xbca3f035	-0.020012
66	0x3bab6389	0.0052303714
67	0xbb4588ba	-0.003014131
68	0x3cf25224	0.029580183
69	0x3a8cd152	0.0010743535
70	0x3c0aaead	0.0084644975
71	0x3c135cf1	0.008994327
72	0xbbc0dcff	-0.00588572
73	0x3c08a81c	0.008340862
74	0xbbf90d11	-0.0076004346
75	0xbc163c5c	-0.009169664
76	0xbc36e813	-0.011163729
77	0xbc1d58fc	-0.009603735
78	0xbc643b16	-0.013930103
79	0x3c8a09fb	0.016850462
80	0xbbfdda65	-0.007746982
81	0x3c4be84b	0.01244552
82	0xbb05a9c0	-0.0020395368
83	0xba2e571f	-0.00066505553
84	0xbba1d79a	-0.004939032
85	0x3c31224d	0.010811401
86	0x3c7e7f92	0.015533345
87	0xbc23bc8c	-0.009993684
88	0x3bbe210b	0.005802279
89	0x3bb9b57b	0.005667386
90	0x3ba41b67	0.0050081494
91	0x3b499935	0.0030761485
92	0xba3c6682	-0.0007186906
93	0xbc2dd9a3	-0.010610971
94	0xbc5feecd	-0.013667774
95	0x3bda494f	0.006661571
96	0x3aea7cb5	0.0017889949
97	0xbc855d35	-0.016279796
98	0xb99203a1	-0.00027849994
99	0x3b6717ba	0.0035261945
100	0xbbac997e	-0.005267321
101	0x3c94fbdc	0.018186502
102	0x3bce76c3	0.0063007786
103	0x3ba81cf7	0.005130406
104	0x3b85de20	0.0040853173
105	0x3bf25162	0.0073949555
106	0x3c5be859	0.013422095
107	0xbc204cd8	-0.009783946
108	0x3ab6597c	0.0013912166
109	0xbb560a9b	-0.003266013
110	0xbc4b964d	-0.012425971
111	0x3cc20920	0.023685992
112	0x3cfdaa2c	0.030964933
113	0x3ac4f9d1	0.0015028064
114	0x3be35ea0	0.0069387704
115	0xbc0ad9b0	-0.008474752
116	0x3c8a18e7	0.016857577
117	0x3ca0f486	0.019647848
118	0x3c4eea66	0.012629127
119	0x3c18edd4	0.009334046
120	0xb9cb838a	-0.00038817181
121	0xbb9e4862	-0.004830406
122	0x3ba9cbd7	0.0051817703
123	0x3c2dd3d0	0.010609582
124	0xbc7d5d35	-0.015464117
125	0x3cdcbde4	0.026946016
126	0xbb8168a8	-0.0039492436
127	0x3c471659	0.012151324
128	0xbcaa9080	-0.020820856
129	0xbc821207	-0.015877737
130	0x3c72f5a8	0.014829077
131	0xb9259558	-0.00015791261
132	0xba09301b	-0.00052333035
133	0xbc9311bb	-0.01795279
134	0xbd071789	-0.03298143
135	0x3b58adf3	0.0033062666
136	0xbc0f84c3	-0.00875968
137	0xbc84c7f4	-0.016208626
138	0xbc9db680	-0.019252062
139	0xbc5a9cc0	-0.013343036
140	0xbb42df5d	-0.0029735186
141	0x3ca9d5ad	0.020731771
142	0xbb89f997	-0.0042106616
143	0x3cd9fa2e	0.026608553
144	0x3b0a6a7c	0.0021120599
145	0xbc934dbd	-0.017981404
146	0xbcfd9724	-0.030955859
147	0x3bc7d299	0.0060981032
148	0xbc41afc3	-0.01182169
149	0xb9a19e97	-0.00030826472
150	0x3c03ae33	0.008037138
151	0xbcb9a3ea	-0.022661168
152	0xba9b6ea8	-0.001185854
153	0x3bf4fb5a	0.0074762525
154	0xbc39b766	-0.0113352295
155	0xba07fd94	-0.00051876274
156	0xbb2bd442	-0.0026219045
157	0xbc84f267	-0.016228868
158	0x3c57a564	0.013161991
159	0x3b9475d3	0.0045306473
160	0x3c83eeae	0.016105022
161	0x3c37b625	0.01121286
162	0xbc1a189c	-0.009405281
163	0x3c9dce63	0.019263452
164	0x3c61533b	0.013752754
165	0xbc50c0c7	-0.012741274
166	0x3be851d1	0.0070898314
167	0x3b81c2dc	0.0039599966
168	0x3b401521	0.0029309469
169	0xbc004b87	-0.007830507
170	0x3c3492ab	0.0110212965
171	0xbc52862c	-0.012849372
172	0xbc5d6000	-0.013511658
173	0x3c83f474	0.016107775
174	0x3b33b297	0.002741968
175	0x3c83abfe	0.016073223
176	0xbc24a80c	-0.010049831
177	0x3b78fd50	0.0037992783
178	0x3c90d7a9	0.01768096
179	0x3c556e70	0.013026819
180	0xbc763a27	-0.015028513
181	0x3b90478b	0.00440306
182	0x3a598542	0.000829775
183	0x3c479bb9	0.012183123
184	0xba3fa521	-0.0007310678
185	0x3cbd9791	0.023143562
186	0x3c7f885d	0.015596476
187	0xbb35f268	-0.0027762894
188	0x3c17998c	0.009252917
189	0xbb439bb3	-0.0029847443
190	0xbc244c8c	-0.010028016
191	0x3cb12b70	0.021627158
192	0xbb4b3a00	-0.0031009912
193	0x3b638b4a	0.0034720474
194	0x3bc99e13	0.006152877
195	0x3bdc7e50	0.006728925
196	0xbb338730	-0.002739381
197	0xbc7a20c3	-0.0152666
198	0xbb276a97	-0.002554571
199	0xbc8e63de	-0.017381605
200	0x3cfccffb	0.030860892
201	0x3c0855ba	0.00832122
202	0x3c49657f	0.012292265
203	0xbb294524	-0.0025828565
204	0x3b80952f	0.003924034
205	0xbb858aa8	-0.004075367
206	0xbd13dda9	-0.036100063
207	0x3c4435d5	0.011975725
208	0x3d070836	0.032966815
209	0xbc3426ca	-0.010995576
210	0xbbdeaf25	-0.006795781
211	0xbcd7ca6f	-0.026341645
212	0x3c69a8e9	0.014261463
213	0xbca73f2d	-0.020415867
214	0x3c223631	0.009900616
215	0x3cc852e8	0.024453595
216	0x3900ca32	0.00012282355
217	0x3caef523	0.021357125
218	0x3bc6d72b	0.0060681305
219	0x3c6861c7	0.014183468
220	0x3c282f3f	0.010265171
221	0x3bf67082	0.007520736
222	0xbcd153b0	-0.0255526
223	0xbbc180bc	-0.005905239
224	0xbc98f820	-0.018673003
225	0xbc8d0d0b	-0.017218133
226	0x3c9ee8b6	0.019398075
227	0x3cc02f82	0.023460153
228	0x3cbc4384	0.022981413
229	0xbccf98fb	-0.025341501
230	0x3c04743f	0.008084356
231	0xbc4e16c8	-0.012578674
232	0x3bdfef9a	0.0068339827
233	0x3c3551df	0.011066883
234	0x3c2acd79	0.010424965
235	0xbc19259c	-0.009347346
236	0x3cc19628	0.02363117
237	0xbc6e9c25	-0.014563595
238	0xbb7bd4a8	-0.0038426314
239	0x3d031231	0.03199977
240	0x3bb70790	0.0055856183
241	0x3b41efa9	0.0029592311
242	0xbb8f9a57	-0.0043824124
243	0x3b0d26c9	0.002153801
244	0x3c029a30	0.0079713315
245	0xbc83a989	-0.016072052
246	0x3afbd99c	0.0019214633
247	0x3accf168	0.001563591
248	0x3afc8ba9	0.0019267696
249	0x3cc7c1de	0.024384435
250	0xbc3b4f76	-0.011432519
251	0xbb047ba4	-0.0020215297
252	0x3c36585d	0.011129466
253	0x3c929318	0.017892405
254	0x3b88db5f	0.0041765417
255	0x3b593830	0.0033145063

MatMul_1 f4 [32, 32]
0	0x3da36de5	0.07979945
1	0xbd3451a9	-0.04402319
2	0xbd978544	-0.07398465
3	0xbdd54e2f	-0.10415303
4	0xbe153164	-0.14569622
5	0x3e300790	0.17190385
6	0x3d6af9f3	0.057367276
7	0x3d93c45d	0.07215188
8	0x3e1040ec	0.14087266
9	0x3e318b46	0.17338285
10	0xbd8802be	-0.06641148
11	0xbd8c8889	-0.068619795
12	0x3dbbdbe8	0.09172803
13	0x3e28de93	0.16491155
14	0x3da3f7ea	0.0800627
15	0x3dc5392c	0.09630045
16	0x3d1250d5	0.03572162
17	0xbd4e23f9	-0.050327275
18	0x3e31da14	0.17368346
19	0x3d25094a	0.040292062
20	0xbd47aa22	-0.048746236
21	0xbbd749c5	-0.0065700733
22	0xbd6b26b9	-0.057409976
23	0xbd3353e8	-0.04378119
24	0xbd2dd107	-0.042435672
25	0xbe236247	-0.15955459
26	0xbd9c3971	-0.076281436
27	0x3e3704eb	0.1787297
28	0xbd08e79c	-0.033424005
29	0x3d2baaad	0.041910816
30	0xbd486939	-0.048928473
31	0x3c413f9c	0.011794951
32	0x3d74defe	0.059782974
33	0x3c6c7ba8	0.014433779
34	0x3d1f8173	0.03894181
35	0xbda5b1f2	-0.08090581
36	0xbd64f2b2	-0.055895515
37	0xbdd0edc2	-0.10201599
38	0x3d54be93	0.05193956
39	0xbd827d6d	-0.06371579
40	0xbdc3f36d	-0.09567914
41	0xbd562344	-0.052279726
42	0xbdc077ae	-0.09397827
43	0xbd19f2e5	-0.037585158
44	0xbe26af64	-0.16277844
45	0xbddf59d5	-0.10905806
46	0x3d4d8ab1	0.050181095
47	0xbcb4ab98	-0.022054479
48	0xbe2d0d93	-0.1689971
49	0xbd43738c	-0.047717616
50	0xbdbfdaeb	-0.09367927
51	0xbe3bbcab	-0.1833369
52	0x3d325f37	0.043547835
53	0xbdeea68d	-0.11652861
54	0x3b9e57bb	0.0048322356
55	0x3cfcbda9	0.030852156
56	0xbd4c32a2	-0.049852975
57	0x3dc47d9d	0.09594271
58	0x3e07307d	0.1320209
59	0x3e39ce4a	0.181451
60	0x3e0b02ed	0.13575335
61	0x3de06056	0.109558746
62	0x3e076c88	0.13224995
63	0xbe3372d3	-0.1752427
64	0x3e09c849	0.13455309
65	0xbda88210	-0.082279325
66	0xbdc19b1a	-0.094534114
67	0x3cc37a35	0.023861984
68	0xbdf8fcb0	-0.12157571
69	0x3d053967	0.032525446
70	0xbd998032	-0.074951544
71	0x3c00a9c6	0.007852977
72	0xbe1c0b22	-0.15238622
73	0x3da3955d	0.07987473
74	0xbcae6b39	-0.021291362
75	0xbd8f3fec	-0.06994614
76	0x3db5ad5f	0.088709585
77	0x3d68723a	0.05674956
78	0x3dcc9f06	0.09991269
79	0xbe394234	-0.1809166
80	0x3e2a7e15	0.16649659
81	0x3db8339c	0.08994219
82	0x3e195657	0.14974342
83	0x3d04ff70	0.032470167
84	0x3da62a43	0.081135295
85	0xbce2c6f5	-0.02768276
86	0xbaac68c0	-0.0013153777
87	0xbd9a6b41	-0.07539988
88	0x3c7c0016	0.01538088
89	0xbe22cd84	-0.1589871
90	0x3dd2ef42	0.10299541
91	0xbd655a68	-0.05599442
92	0x3d5c1acf	0.053736504
93	0x3e2354dc	0.1595034
94	0x3c33b19f	0.010967641
95	0xbdb69bb8	-0.0891642
96	0x3dd42a5c	0.10359642
97	0xbda9f7ec	-0.082992405
98	0xbd99c9f1	-0.075092204
99	0x3ce1fb9f	0.027585803
100	0x3ba86f6f	0.005140237
101	0xbc835687	-0.01603247
102	0x3e07d939	0.13266458
103	0x3d99fa7a	0.07518478
104	0xbd27beff	-0.040953632
105	0xbca60f97	-0.020271106
106	0x3e1653d0	0.1468041
107	0x3e1bb63a	0.15206233
108	0xbd506b7d	-0.05088376
109	0xbd24f1b4	-0.04026957
110	0xba9bac0a	-0.0011876833
111	0x3deb33a8	0.11484462
112	0xbd91cf74	-0.07119647
113	0x3c1e8c0c	0.009676944
114	0xbdeec256	-0.116581604
115	0xbc8b6166	-0.017014217
116	0x3d24c9cd	0.040231515
117	0x3dda817f	0.10669231
118	0xbe404bcf	-0.18778919
119	0xbb6b5399	-0.0035907982
120	0xbdaffecc	-0.085935205
121	0x3db3b65d	0.087750174
122	0x3c94b4ee	0.01815268
123	0x3d5ad86f	0.053429063
124	0x3cc4a5ca	0.024004836
125	0xbe06c150	-0.1315968
126	0x3da45662	0.08024289
127	0xbcac144b	-0.02100577
128	0xbdfbcdee	-0.12295137
129	0x3d9efa43	0.077625774
130	0x3e0f0a6e	0.13968822
131	0x3e166d02	0.1469002
132	0xbd4b9974	-0.04970689
133	0x3da69c2c	0.08135256
134	0x3e3eee97	0.18645702
135	0xbde3439d	-0.110968806
136	0xbe2765c9	-0.16347422
137	0xbe3ed5d4	-0.18636256
138	0x3c72d167	0.014820433
139	0xbe191fdb	-0.14953558
140	0x3d78bb84	0.060725704
141	0x3dc125b1	0.09431017
142	0xbddff2e6	-0.10935001
143	0xbda24136	-0.07922594
144	0x3d4acea3	0.04951347
145	0x3e057780	0.13033867
146	0x3d6741f8	0.056459397
147	0xbd9229d7	-0.071368866
148	0x3e2ac6d4	0.1667741
149	0xbe2fbe36	-0.17162403
150	0xbe237d26	-0.15965709
151	0xbe16bbaf	-0.14720033
152	0x3d8c136c	0.06839642
153	0xbe24eb88	-0.16105473
154	0x3e1d24bf	0.15346049
155	0x3d866212	0.06561674
156	0x3d52ad58	0.051434845
157	0x3dfe5730	0.124189734
158	0xbd2b91a5	-0.041886944
159	0x3c6bd2b5	0.014393498
160	0xbdde149c	-0.10843775
161	0x3d5c22f7	0.053744283
162	0xbdc55193	-0.096347
163	0xbca38066	-0.019958686
164	0x3dc516a2	0.096234575
165	0xbe325c0f	-0.1741793
166	0x3da3c9a8	0.07997447
167	0x3ddd4f1c	0.108061045
168	0x3e265344	0.16242701
169	0x3e32c1a8	0.17456686
170	0xbd9de33b	-0.077093564
171	0x3db9cab2	0.09071864
172	0xbe09fbb1	-0.13474919
173	0xbda2294c	-0.07918033
174	0xbd1736a5	-0.036917347
175	0x3dd8604e	0.10565244
176	0x3c835421	0.016031327
177	0xbdee0d6c	-0.11623654
178	0xbd899796	-0.06718366
179	0x3e28be72	0.16478899
180	0x3c266ccc	0.010157775
181	0xbdc6c355	-0.097052254
182	0x3e75ff78	0.24023235
183	0x3d45035f	0.048098918
184	0xbe2332ee	-0.15937397
185	0xbd4f68ff	-0.05063724
186	0x3e26b276	0.16279015
187	0x3c290126	0.010315215
188	0xbdb6762e	-0.0890926
189	0x3d2ab72d	0.041678596
190	0x3e0dcca2	0.13847592
191	0xbda0c7bf	-0.078505985
192	0x3d901258	0.07034749
193	0xbdb9ba8f	-0.09068786
194	0x3d41f714	0.047354773
195	0x3ca999e9	0.020703273
196	0x3d65b6aa	0.056082405
197	0xbc44c681	-0.012010218
198	0xbe03f25c	-0.12885422
199	0xbd56a01b	-0.052398782
200	0xbd871f15	-0.06597725
201	0xbc604ae0	-0.013689727
202	0x3e117bcc	0.14207381
203	0x3e147724	0.14498574
204	0x3e2caa66	0.16861877
205	0xbd8864a9	-0.066598244
206	0x3de5c784	0.11219695
207	0xbe4c63ee	-0.19959995
208	0x3c093406	0.00837422
209	0xbdb0d2ee	-0.08633982
210	0x3e2ec793	0.17068319
211	0xbdb98e94	-0.09060398
212	0x3dc54a61	0.09633327
213	0xbcbd8ee0	-0.023139417
214	0x3bf31387	0.0074180993
215	0x3d58554a	0.052815713
216	0x3c85ea30	0.01634702
217	0xbe268519	-0.1626171
218	0x3db260de	0.08709882
219	0xbc90f7e8	-0.017696336
220	0x3e3cc084	0.18432814
221	0x3d927edc	0.07153103
222	0x3da8bd48	0.082392275
223	0xbd915487	-0.070962004
224	0xbdfd0af6	-0.12355606
225	0xbd73314b	-0.05937318
226	0xbe20f021	-0.15716602
227	0x3e0ff074	0.1405657
228	0xbcf2642b	-0.02958878
229	0x3da880b1	0.08227671
230	0x3e0b612e	0.1361129
231	0x3d1a4d4a	0.037671365
232	0x3d0858e1	0.033287887
233	0xbde98db2	-0.11403979
234	0xbe2ca176	-0.16858467
235	0x3e0031b2	0.12518957
236	0xbd30b76f	-0.043143686
237	0x3dfc58a0	0.123215914
238	0xbe0f76fe	-0.14010236
239	0x3dbcf181	0.09225751
240	0x3e182206	0.14856729
241	0xbd4e7c0c	-0.05041127
242	0xbce5686d	-0.028003896
243	0xbde0d581	-0.10978223
244	0xbb0fa9e3	-0.0021921329
245	0xbe3537b5	-0.17697032
246	0x3d42adf9	0.047529195
247	0xbe3b80fa	-0.1831092
248	0xbdd6ef8e	-0.1049491
249	0xbd8dc402	-0.06922151
250	0x3dfc7a95	0.12328068
251	0xbcc4e46d	-0.024034703
252	0x3db07baf	0.08617341
253	0x3db20806	0.086929366
254	0xbdf3187e	-0.11869906
255	0x3e225e9a	0.158564

MatMul_2 f4 [1, 32]
0	0xbd6a2989	-0.057168517
1	0xbebcc8a1	-0.36871818
2	0xbe9fb5e1	-0.3119345
3	0xbe9b9d8c	-0.30393636
4	0xbeb03a46	-0.3441946
5	0x3e26ff23	0.16308264
6	0xbea89abc	-0.32930553
7	0x3e219e8d	0.15783139
8	0x3e1a3369	0.15058674
9	0x3d8e766a	0.069561794
10	0xbeb8d3f3	-0.36099204
11	0xbea32d16	-0.31870335
12	0xbbec914f	-0.0072194706
13	0x3cccb647	0.02498926
14	0x3e02ab10	0.12760568
15	0x3e415208	0.18878949
16	0xbea1c6cd	-0.31596985
17	0xbda53460	-0.0806663
18	0x3e2bdbb0	0.16783023
19	0x3e441bb3	0.19151191
20	0x3e298992	0.16556385
21	0x3e2a6501	0.16640092
22	0x3d6cd16d	0.05781691
23	0xbd0cbbc4	-0.034358755
24	0xbe7fa00e	-0.249634
25	0x3dd37ebc	0.10326907
26	0xbd657d13	-0.056027483
27	0xbdd3f362	-0.10349156
28	0x3e157814	0.14596587
29	0xbe9c72ab	-0.30556235
30	0xbd895f13	-0.06707587
31	0x3e07f6d1	0.13277747
