hey_alfred_sensitivity_3.tflite (tflite, 206748 bytes, 9 tensors)

Const_1 f4 [32]
0	0x3c71dd54	0.014762241
1	0xbbce6f69	-0.006299902
2	0xbc6f2ab3	-0.014597583
3	0xbc8bc591	-0.01706198
4	0xbcea4c1d	-0.028600747
5	0xbc1ab39b	-0.009442235
6	0xba171e37	-0.0005764695
7	0x3c1aaa44	0.009440009
8	0xbc1df1e0	-0.009640187
9	0x3c7c1ffd	0.015388486
10	0xbb3364db	-0.0027373347
11	0xbbc904f0	-0.006134622
12	0x3ce954d4	0.028482832
13	0x3aa2f4a1	0.0012432524
14	0xb9deb098	-0.00042474712
15	0x3c503e6d	0.012710196
16	0xbc37c48a	-0.011216292
17	0x3cbf3c39	0.023344146
18	0xbbe48b3e	-0.006974607
19	0x3c12f85e	0.008970348
20	0xbcb9ce89	-0.022681491
21	0xbc0575ec	-0.008145791
22	0xbc71d787	-0.014760858
23	0x3b960685	0.004578414
24	0x3b9e4627	0.00483014
25	0xbc379878	-0.011205785
26	0xbc38c5c2	-0.011277618
27	0x3cab144b	0.0208837
28	0x38b43525	8.592968e-05
29	0x3c8d94a1	0.017282786
30	0xbc68ece7	-0.014216638
31	0xbc013aea	-0.007887581

Const_2 f4 [32]
0	0x3f79c80c	0.9757087
1	0x3f8296ca	1.0202267
2	0x3f80dc80	1.0067291
3	0x3f7ffb26	0.999926
4	0x3f81849e	1.0118597
5	0x3f81228d	1.0088669
6	0x3f7f697f	0.9977035
7	0x3f80c24e	1.0059297
8	0x3f7747a0	0.96593666
9	0x3f804ebc	1.0024028
10	0x3f7f963a	0.998386
11	0x3f7ed78c	0.9954765
12	0x3f86ad4c	1.0521636
13	0x3f7ba8b9	0.98304325
14	0x3f79a2c2	0.97513974
15	0x3f7f568d	0.9974144
16	0x3f801150	1.0005283
17	0x3f81835e	1.0118215
18	0x3f7f5670	0.9974127
19	0x3f7f7930	0.9979429
20	0x3f804c48	1.0023279
21	0x3f83dfb9	1.030265
22	0x3f86f816	1.054446
23	0x3f855357	1.0416058
24	0x3f7f558e	0.9973992
25	0x3f7fda1c	0.99942183
26	0x3f7b9f35	0.98289806
27	0x3f808f64	1.0043759
28	0x3f7f7875	0.9979318
29	0x3f814ca6	1.0101516
30	0x3f7f0f62	0.9963285
31	0x3f806513	1.0030845

Const_3 f4 [32]
0	0x3c97e1be	0.01854026
1	0x3c80548a	0.015665311
2	0x3be6c6db	0.0070427484
3	0x3a3b9b60	0.00071566366
4	0x3c84f6bb	0.016230932
5	0x3bb8f334	0.0056442264
6	0xb9c2e905	-0.00037176177
7	0x3c055216	0.008137247
8	0x39338a00	0.00017122179
9	0xbbc4dd8c	-0.0060078558
10	0xbc45d580	-0.012074828
11	0xbc0a5df8	-0.008445255
12	0x3cf58260	0.029969394
13	0x3c82cd92	0.015967164
14	0x3af40541	0.0018617288
15	0xbc5b2a60	-0.013376802
16	0xbb979827	-0.0046262923
17	0x3c6a36ad	0.014295262
18	0xbc6ec5f3	-0.014573562
19	0xbab74153	-0.001398126
20	0x3c59d78e	0.013296021
21	0x3cf1d16b	0.029518804
22	0x3cf9215e	0.030411419
23	0x3d21d93a	0.039513804
24	0xbc039451	-0.008030967
25	0xbaa8352a	-0.0012833227
26	0x3cc9630a	0.024583358
27	0x3c9a83b5	0.018861631
28	0xbc0fca65	-0.008776282
29	0x3d14828c	0.03625731
30	0xbc4ad76d	-0.012380463
31	0x3c17692d	0.009241384

Const_5 f4 [32]
0	0xbe33f97c	-0.1757564
1	0x3d87b909	0.066270895
2	0xbdc6393e	-0.09678887
3	0xbcdf97a7	-0.027293993
4	0xbce976e9	-0.028499084
5	0x385f1415	5.3186046e-05
6	0x3e0074d6	0.1254457
7	0xbcf42f32	-0.02980766
8	0x3e3158df	0.17319058
9	0x3d0e2cfb	0.034710865
10	0xbdaf8e5a	-0.08572073
11	0x3db763c4	0.08954576
12	0x3de281b1	0.11059893
13	0xbdc7d18a	-0.09756763
14	0x3dd767f5	0.10517875
15	0x3ddd751e	0.10813354
16	0xbd373d80	-0.044736385
17	0x3d575f31	0.052581016
18	0x3dfd752e	0.12375866
19	0xbd6acd03	-0.05732442
20	0xbb29659b	-0.0025847915
21	0xbe05ece4	-0.13078648
22	0xbd8c2419	-0.068428226
23	0xbe21be73	-0.15795307
24	0xbd14e630	-0.036352336
25	0x3e244ce5	0.16044958
26	0x3d7eff66	0.062255286
27	0x3bcb12a3	0.00619729
28	0xbd15254d	-0.036412526
29	0xbd7e2944	-0.062051073
30	0x3dd89b1a	0.10576458
31	0xbd496de6	-0.049177073

Const_6 f4 [32]
0	0x3f81d00a	1.0141613
1	0x3f84f40c	1.0386977
2	0x3f85564a	1.0416958
3	0x3f800dda	1.0004227
4	0x3fa228f4	1.2668748
5	0x3f7fcfe6	0.999266
6	0x3fa6ddd7	1.303645
7	0x3f7ea1f3	0.99465865
8	0x3fa4d365	1.2877012
9	0x3f9fdd94	1.2489495
10	0x3f7a3f2a	0.9775263
11	0x3f85fdf5	1.0468127
12	0x3f9b857d	1.2150112
13	0x3f7da4d4	0.9907963
14	0x3f803870	1.0017223
15	0x3fa46dd8	1.2846022
16	0x3fa4adb7	1.2865514
17	0x3f9cfe11	1.2265035
18	0x3f7f5cf8	0.99751234
19	0x3f84509c	1.03371
20	0x3f862301	1.0479432
21	0x3f8e90dc	1.1137958
22	0x3f84cd0f	1.0375079
23	0x3f7fe9d7	0.99966186
24	0x3f7f5f33	0.9975464
25	0x3f7fb52f	0.9988584
26	0x3f85cc12	1.0452902
27	0x3f7efeef	0.9960775
28	0x3f7f4c62	0.99725926
29	0x3f8053b9	1.002555
30	0x3faf75a3	1.3707775
31	0x3f7c6265	0.9858764

Const_7 f4 [32]
0	0x3c7a692e	0.015283866
1	0x3c9344ae	0.017977085
2	0x3d02cb55	0.031932194
3	0x3b745506	0.0037282123
4	0x3e86f615	0.2635962
5	0xbb117d01	-0.0022199752
6	0x3e8db483	0.27676782
7	0xbc843dce	-0.016142752
8	0x3e8944cd	0.26810303
9	0x3e811d61	0.25217727
10	0xbcc846e8	-0.024447873
11	0x3d2f51c0	0.042802572
12	0x3e734c77	0.23759638
13	0xbc264ad3	-0.010149675
14	0x3bb4fa2a	0.005522986
15	0x3e89528d	0.26820794
16	0x3e8af3f9	0.2713926
17	0x3e7a6441	0.24452306
18	0x3b34ff1b	0.0027617875
19	0x3ced1f14	0.028945483
20	0x3d262e92	0.040571757
21	0x3da490ea	0.08035453
22	0x3c763c0d	0.015028966
23	0xbb67dbcc	-0.0035378812
24	0xbcb6e781	-0.022327187
25	0xbb8c413e	-0.0042802384
26	0x3d17b9f2	0.037042566
27	0xba96461a	-0.0011464984
28	0x39aefe4a	0.00033377326
29	0x3b8f62e7	0.0043758038
30	0x3e9b31ae	0.3031134
31	0xbcad0fd2	-0.021125708

MatMul f4 [32, 1536]
0	0x3b808035	0.0039215335
1	0x3c083d45	0.008315389
2	0x3c603aa5	0.013685857
3	0x3b419e79	0.002954392
4	0xbc29f6c1	-0.010373772
5	0x3b4bf450	0.0031120963
6	0x3c6467d9	0.013940775
7	0xbc919dd9	-0.017775463
8	0x3c011640	0.00787884
9	0x3c977dab	0.01849254
10	0xbce9e641	-0.028552176
11	0x3ba1ea55	0.0049412646
12	0xbba5e3d9	-0.005062562
13	0x3b1ce342	0.0023939167
14	0xbbda6e91	-0.0066660126
15	0xbb689c70	-0.0035493635
16	0x3cd372cf	0.025811581
17	0x3c700b12	0.014651077
18	0x3c5143c7	0.012772507
19	0x3c117cad	0.008879823
20	0xbc595b5c	-0.013266411
21	0x3aa05560	0.0012232475
22	0x3c0f0ae3	0.008730623
23	0xbcb894bd	-0.022531861
24	0xbbb2b9c6	-0.005454275
25	0x3ba3e04f	0.005001105
26	0x3c055b1c	0.008139398
27	0xbca67925	-0.020321438
28	0x3b3b9ad5	0.0028626223
29	0xbb50c675	-0.003185657
30	0xbcf57bc4	-0.029966243
31	0x3b436839	0.002981676
32	0x3c2cc1a2	0.010544213
33	0x3c0777ce	0.00826831
34	0x39c9dc55	0.00038501868
35	0x3bfde23d	0.007747917
36	0x3c6c068f	0.014405861
37	0x3cc10da0	0.023566067
38	0xbc25cd7c	-0.010119792
39	0x3c1bfa34	0.009520102
40	0xbbcb73e6	-0.0062088845
41	0xba4f6981	-0.00079121446
42	0xbb39eac8	-0.00283687
43	0x3b4e2f12	0.0031461162
44	0x3bee8dde	0.0072800955
45	0xbc79ddfc	-0.015250679
46	0x3c6a143d	0.014287052
47	0x3c10c440	0.008835852
48	0xbc6fb1a7	-0.014629758
49	0xbc3b011d	-0.01141384
50	0x3cc0862d	0.02350148
51	0x3c80d7a5	0.015727827
52	0xbcb0d1d1	-0.021584423
53	0xbc8663e9	-0.016405063
54	0x3c339f11	0.010963217
55	0x3c2b4007	0.010452277
56	0x3ba2245c	0.004948182
57	0xbbce1938	-0.0062896274
58	0xbccf1745	-0.02527965
59	0x3c87610b	0.016525766
60	0xbc0f0496	-0.008729121
61	0xbcb4d089	-0.022072094
62	0x3ce8b85d	0.028408224
63	0x3d136c9f	0.03599226
64	0x3b0f1069	0.002182985
65	0xbbbdadf4	-0.005788559
66	0x3cb7cbfe	0.022436138
67	0xbc2d1496	-0.01056399
68	0xbbe9cc64	-0.007134961
69	0xbc33f81f	-0.01098445
70	0xbc18def8	-0.009330504
71	0x3c85bcc4	0.016325362
72	0xbceb35b9	-0.02871214
73	0x3c2f89ee	0.010714037
74	0xbae244b4	-0.0017262907
75	0x3bf06a33	0.0073368787
76	0xbb1ba9fc	-0.0023752442
77	0xbbda7101	-0.006666303
78	0xbc472d83	-0.012156847
79	0xba997e7a	-0.0011710667
80	0x3cebd0b0	0.028786033
81	0x3c4a7b98	0.012358569
82	0xbc220361	-0.009888501
83	0xbcb8a0c1	-0.022537591
84	0x3c4c0342	0.012451949
85	0xbca2156f	-0.019785611
86	0x3cf40592	0.029787812
87	0xbc68c1ff	-0.0142064085
88	0xbb7f16f2	-0.0038923589
89	0x3cba0023	0.022705143
90	0xbbb771ba	-0.005598274
91	0xbc1b4200	-0.009476185
92	0xbc60ede4	-0.013728593
93	0xbaeaea0b	-0.0017922533
94	0x3c8a7d7d	0.01690554
95	0x3bc99351	0.0061515947
96	0x3accc877	0.0015623708
97	0x3c875443	0.016519671
98	0xbca05841	-0.019573333
99	0x3c4230a7	0.01185242
100	0xbc372bfa	-0.011179918
101	0x3cb74dcd	0.022375965
102	0xbc364117	-0.011123917
103	0x3c1458b7	0.009054354
104	0x3c1eee94	0.009700436
105	0xbc7d2682	-0.0154510755
106	0x3c639a5a	0.013891781
107	0x3a5cd5b1	0.00084241765
108	0x3a9d3b12	0.0011995754
109	0xbd15f332	-0.036608882
110	0xbcc9cab7	-0.024632795
111	0x3cc49e7b	0.02400135
112	0x3ca9d692	0.020732198
113	0x3b417b81	0.0029523077
114	0x3c23f0e4	0.010006163
115	0xbc83d905	-0.016094694
116	0x3b38f88a	0.0028224313
117	0x3c81230c	0.015763782
118	0x3a260e51	0.0006334531
119	0xbb4d67ea	-0.0031342455
120	0xbc0b5688	-0.008504517
121	0x3c41825f	0.011810868
122	0xbbc18972	-0.0059062773
123	0x3d2fa264	0.042879477
124	0x3a08b50f	0.0005214968
125	0xbbfe4137	-0.007759239
126	0x3c56d683	0.013112667
127	0x3c7f4741	0.015580953
128	0x3bcdf404	0.0062851924
129	0x3c68ea54	0.014216024
130	0x3c028a76	0.007967582
131	0xbbb40d77	-0.005494769
132	0x3cd3df38	0.025863275
133	0xbc1aa347	-0.009438342
134	0x3cc04c6a	0.023473937
135	0x3b800a1b	0.0039074547
136	0xbcb170e4	-0.021660276
137	0xbba499fe	-0.00502324
138	0x3b76689d	0.0037598975
139	0xb9a84207	-0.0003209265
140	0x3c1605da	0.009156669
141	0x3c4aca60	0.0123773515
142	0xbc8c89dc	-0.01715558
143	0xbc39c4a7	-0.0113383895
144	0x3c3c495e	0.0114921015
145	0xbc1f8ec3	-0.009738627
146	0xbc24c4df	-0.010056703
147	0x3c8cf7c1	0.017207982
148	0xbb47b093	-0.0030470237
149	0xbca85cd3	-0.020552075
150	0xbd0a494b	-0.033761304
151	0xbc26c54f	-0.010178878
152	0x3b448bdb	0.0029990587
153	0x3ccc41e5	0.024933765
154	0x3bc7ebf0	0.006101124
155	0xbc855b43	-0.016278869
156	0xbb15d604	-0.002286316
157	0xbb16c147	-0.0023003386
158	0xbb76103c	-0.0037546298
159	0xbc5ef468	-0.013608076
160	0x3c7142f1	0.014725433
161	0x3c83c289	0.016083973
162	0xbbe30899	-0.006928515
163	0x3c6a1dd3	0.014289337
164	0xbc90cde7	-0.017676307
165	0xbba6ce05	-0.0050904774
166	0x3ca3b2f8	0.0199828
167	0xbb077cce	-0.0020673755
168	0x3b7ce723	0.0038589917
169	0xbcc26474	-0.02372954
170	0x3ce655d5	0.0281171
171	0x3c6dca52	0.014513569
172	0xbc36f156	-0.011165937
173	0xbc0eb63e	-0.008710442
174	0xbc717040	-0.014736235
175	0x3be9f69e	0.0071399948
176	0xbcc3a5d4	-0.023882784
177	0xbca87d09	-0.020567434
178	0x3bb18691	0.005417653
179	0x3c39cc59	0.011340224
180	0x3bd5fe4d	0.006530559
181	0x3b911fc3	0.004428835
182	0xba73c3a8	-0.00092988694
183	0xbc91ef12	-0.017814193
184	0xbcf40ea1	-0.029792132
185	0xbbffc348	-0.0078052618
186	0xbbe12c79	-0.0068717566
187	0xbbd3c8f9	-0.006463167
188	0xbbb9763e	-0.0056598475
189	0xbc3d4344	-0.011551682
190	0xbc154654	-0.009111006
191	0xbbd28717	-0.0064247954
192	0xbc631b6e	-0.01386152
193	0xbc131ece	-0.008979512
194	0xbc284d6f	-0.010272368
195	0xbc945b54	-0.018109955
196	0x3c8aec86	0.016958486
197	0x3c869290	0.016427308
198	0x3c19c9b4	0.009386469
199	0xbbba22c8	-0.005680416
200	0x3c8534e5	0.016260574
201	0x3ba491ff	0.005022287
202	0xbb1d7842	-0.0024027978
203	0xbaa65e20	-0.0012692846
204	0xba9eb1b3	-0.0012107402
205	0x3ac2c734	0.0014860393
206	0x3c29a588	0.010354407
207	0x3c4a36b3	0.012342143
208	0xbb49b740	-0.0030779392
209	0xbc4277c1	-0.011869372
210	0xbce022bb	-0.02736031
211	0xbc2d9e31	-0.010596798
212	0x3c00bfb9	0.00785821
213	0x3cb6a764	0.022296615
214	0x3b6516a1	0.0034956115
215	0xbb5595c7	-0.0032590495
216	0x3b8cb7b7	0.0042943615
217	0xbb6e7e29	-0.0036391115
218	0xbbc3f5b2	-0.005980217
219	0xba190b0d	-0.00058381335
220	0xbb97bede	-0.0046309074
221	0xbb04e8d1	-0.002028037
222	0xb9237b20	-0.00015590759
223	0xbb9e0ec0	-0.0048235357
224	0x3c9c6e68	0.019095615
225	0x3bd539cd	0.0065071345
226	0xba33ac7b	-0.00068540097
227	0xbc6e86bc	-0.01455849
228	0xbc963e24	-0.018340178
229	0xbc3c5137	-0.0114939725
230	0xbc612910	-0.0137427
231	0x3bd14b9e	0.006387188
232	0xbc3564be	-0.011071382
233	0xbd0c7cf0	-0.034298837
234	0xbc7db2db	-0.015484537
235	0x3c1106d8	0.008851729
236	0xbbfb1ba9	-0.0076632095
237	0xba7d569b	-0.00096640893
238	0xbc8b06bb	-0.016970983
239	0xbcf3d6c5	-0.029765496
240	0x3ab47ea4	0.0013770652
241	0x3d00e410	0.031467497
242	0xbb031a0b	-0.0020004536
243	0x3c143170	0.00904499
244	0xbb362cf8	-0.00277978
245	0xbcc18d16	-0.023626845
246	0x3c2d43a2	0.010575207
247	0xbc1b14e5	-0.009465431
248	0xbbd6bc40	-0.006553203
249	0xbc585f49	-0.0132063115
250	0xbc961747	-0.018321646
251	0xbcc02693	-0.023455894
252	0xbc6bfd79	-0.014403694
253	0xba623806	-0.0008629564
254	0xba1e5470	-0.0006039804
255	0xbbba7964	-0.0056907404

MatMul_1 f4 [32, 32]
0	0xbdd4b1c7	-0.10385471
1	0xbd8b7686	-0.06809716
2	0xbdb18181	-0.08667279
3	0x3cc219f3	0.023694014
4	0xbdc5e01d	-0.09661887
5	0xbe38f71e	-0.18063018
6	0xbd8c6307	-0.068548255
7	0x3db41dfd	0.08794782
8	0xbdbf29c2	-0.093341365
9	0x3ccbaadb	0.024861744
10	0x3e05ec28	0.13078368
11	0x3dce244a	0.10065515
12	0xbe471615	-0.19442017
13	0x3d8609ec	0.06544861
14	0x3db2c4c0	0.08728933
15	0xbddf3c07	-0.10900121
16	0x3e176580	0.14784813
17	0x3cf69ec5	0.030105004
18	0x3df5d59e	0.12003635
19	0xbcc6b17a	-0.02425455
20	0xbcf76c34	-0.030202962
21	0x3d254522	0.040349133
22	0x3d10f4b7	0.03538963
23	0x3dbce36a	0.09223063
24	0xbd8afa22	-0.0678599
25	0x3b1203e0	0.0022280142
26	0x3d6af2a5	0.05736031
27	0x3d8ffae5	0.07030276
28	0xbd780309	-0.06054977
29	0x3d24d594	0.040242746
30	0xbd6d5715	-0.057944376
31	0xbca585bc	-0.020205371
32	0x3dde4e04	0.10854724
33	0xbdb0d1e5	-0.08633784
34	0x3e1f0913	0.15530805
35	0x3e1cce61	0.15313102
36	0x3df00436	0.11719553
37	0xbdbb5e58	-0.09148854
38	0x3ca8c068	0.020599559
39	0xbdab5d9f	-0.08367466
40	0x3d4a88d6	0.049446903
41	0xbc0e2c10	-0.0086774975
42	0x3ddc123a	0.10745664
43	0xbe20b4de	-0.15693995
44	0x3ca13bd2	0.019681845
45	0xbc0760d2	-0.00826283
46	0xbe1de5db	-0.15419714
47	0xbda85667	-0.08219605
48	0xbc64e76d	-0.013971192
49	0xbdb2de85	-0.087338485
50	0x3e239d6a	0.15978017
51	0x3e25cb59	0.16190852
52	0x3def825b	0.11694785
53	0x3e2a755a	0.16646329
54	0xbe3a3b35	-0.18186648
55	0x3cdd0b83	0.026983028
56	0x3e2e2d46	0.17009458
57	0x3e252b52	0.16129807
58	0x3e156429	0.1458899
59	0x3d3b0991	0.04566342
60	0x3cc25ed3	0.023726856
61	0xbe3553a7	-0.17707692
62	0x3dd94d6c	0.1061047
63	0xbd3ce19d	-0.0461136
64	0x3dfdb261	0.12387539
65	0xbe1aaf31	-0.15105893
66	0x3e3bb638	0.1833123
67	0x3e26ccc4	0.1628905
68	0x3dba66a3	0.09101608
69	0x3d99eccb	0.07515868
70	0xbe2e6a47	-0.17032729
71	0xbe196b16	-0.14982256
72	0x3bc65464	0.0060525406
73	0x3e27677a	0.16348067
74	0xbe17823f	-0.14795779
75	0xbd25dba7	-0.04049268
76	0xbda5d5fd	-0.08097456
77	0xbe22f903	-0.15915303
78	0x3dc68645	0.09693579
79	0x3ccc4aaf	0.024937956
80	0xbd99c641	-0.07508517
81	0xbdbbdf6e	-0.09173475
82	0x3e2985de	0.16554973
83	0xbe0fbdeb	-0.14037292
84	0x3def9a1c	0.11699316
85	0x3e04a157	0.12952171
86	0x3d1c3f08	0.03814605
87	0xbda90a3c	-0.08253905
88	0x3daec975	0.08534519
89	0xbe1593ca	-0.14607158
90	0x3e28556a	0.16438833
91	0xbc75e224	-0.015007529
92	0xbe30e984	-0.17276579
93	0x3c835087	0.01602961
94	0x3d10efd1	0.035384957
95	0xbdd4ae20	-0.10384774
96	0x3d03d295	0.03218325
97	0x3c9e08e4	0.019291349
98	0x3da404b8	0.080087125
99	0xbc2aafa7	-0.010417855
100	0xbd5715bf	-0.052510973
101	0xbe4f0c9e	-0.20219657
102	0x3d5a9805	0.053367633
103	0x3e3e237f	0.18568228
104	0x3def3a2b	0.116810165
105	0x3e1af76b	0.15133445
106	0xbe1a373f	-0.15060137
107	0xbde30faf	-0.11086976
108	0x3d653349	0.055957112
109	0x3d9a27cb	0.07527121
110	0x3d82d1e2	0.06387688
111	0x3e296a8e	0.16544554
112	0xbddfe72b	-0.10932764
113	0xbe191098	-0.14947736
114	0xbde969a9	-0.11397106
115	0xbba8c44a	-0.0051503526
116	0xbdef9e9d	-0.11700175
117	0x3c31002f	0.010803266
118	0xbd4ff0fe	-0.050766937
119	0xbd742768	-0.059607893
120	0x3e300bf8	0.17192066
121	0x3d9a7a93	0.075429104
122	0xbe015880	-0.12631416
123	0xbe45ae7c	-0.19304842
124	0xbc2d707c	-0.0105859
125	0x3daa49a3	0.08314826
126	0xbd6dc023	-0.058044564
127	0xbd6797dd	-0.056541312
128	0x3e04fc36	0.12986836
129	0x3d76f5aa	0.060292877
130	0xbdd2ca97	-0.10292547
131	0x3dad32e1	0.0845697
132	0xbdfe7503	-0.12424662
133	0x3d48cc84	0.049023166
134	0xbe1ddb93	-0.15415792
135	0x3c0b982e	0.008520169
136	0x3e22b45e	0.15889117
137	0x3dbda4bf	0.092599384
138	0xbd08e617	-0.033422556
139	0xbdfaa22f	-0.12237965
140	0x3e28f717	0.16500507
141	0x3e386913	0.18008833
142	0x3e1e683f	0.15469454
143	0xbe163665	-0.14669187
144	0xbd0793c4	-0.033099905
145	0x3d9f5efc	0.07781789
146	0x3d5e0b96	0.054210268
147	0xbe356f81	-0.17718317
148	0xbc6ae201	-0.01433611
149	0xbdb10e2d	-0.08645282
150	0xbd529c8e	-0.051418833
151	0x3da41799	0.080123134
152	0x3d901fbe	0.07037304
153	0xbdeeb127	-0.11654883
154	0xbd208dd7	-0.03919777
155	0xbcdff584	-0.02733875
156	0x3bb846b7	0.0056236642
157	0x3e4c0e9d	0.1992745
158	0x3df963f1	0.121772654
159	0x3dde6293	0.10858645
160	0x3de9db25	0.114187516
161	0x3d54ac83	0.051922332
162	0x3e04089f	0.12893914
163	0xbc233451	-0.009961204
164	0xbe08810b	-0.13330476
165	0xbdbd78d7	-0.09251564
166	0x3d08c484	0.033390537
167	0x3e14cf94	0.1453231
168	0xbdec4296	-0.11536138
169	0x3d10f3ea	0.035388865
170	0x3d6b18bf	0.057396647
171	0xbe2fc7c1	-0.17166044
172	0xbe32e49d	-0.17470022
173	0x3e168684	0.14699751
174	0x3ceddbc9	0.029035466
175	0x3e13ef4c	0.14446753
176	0x3e2f1184	0.17096525
177	0x3dfb3b57	0.122671776
178	0x3d8e5dee	0.069515094
179	0x3e06c268	0.13160098
180	0x3dc049c4	0.0938907
181	0xbd4ed014	-0.050491408
182	0xbd5afe70	-0.053465307
183	0xbda56280	-0.08075428
184	0x3c001d04	0.007819418
185	0xbda45bdf	-0.080253355
186	0x3d544e07	0.051832225
187	0x3e067876	0.1313189
188	0x3e2d1c41	0.1690531
189	0xbd7a59ff	-0.061120983
190	0x3dcb0e6c	0.0991486
191	0xbda2904b	-0.07937678
192	0xbe0caf04	-0.13738638
193	0x3e102060	0.1407485
194	0xbd42b050	-0.047531426
195	0x3cdaf152	0.026726399
196	0xbddd31b9	-0.108004995
197	0x3e45c535	0.1931351
198	0x3dd7c558	0.10535687
199	0xbe012c65	-0.12614591
200	0xbdf2104d	-0.118195154
201	0x3e38ae20	0.18035173
202	0xbd76883c	-0.060188517
203	0xbe16631e	-0.14686248
204	0x3de5c481	0.11219121
205	0x3e009828	0.12558043
206	0xbda61545	-0.081095256
207	0xbe261ba3	-0.1622148
208	0x3cbf9e65	0.023390958
209	0x3e026c0b	0.12736528
210	0x3e3744c4	0.17897326
211	0xbdb04912	-0.08607687
212	0x3ddbee92	0.10738863
213	0xbd1fbd1d	-0.03899871
214	0x3e0302d0	0.12794042
215	0x3daee11f	0.08539032
216	0x3e0b19d7	0.13584076
217	0x37baa623	2.2250291e-05
218	0xbe0d8678	-0.13820827
219	0x3e09f151	0.13470961
220	0xbcf91227	-0.030404164
221	0x3e02f6b1	0.12789418
222	0xbe2d7866	-0.1694046
223	0xbdda2bbd	-0.10652874
224	0x3e040f5f	0.12896489
225	0x3df57573	0.11985292
226	0x3dbe98af	0.09306466
227	0xbdf54d82	-0.11977674
228	0xbc9955d9	-0.018717693
229	0xbdec1f02	-0.11529352
230	0x3ddf3d69	0.10900385
231	0xbe104b07	-0.1409112
232	0x3d785d17	0.060635652
233	0x3da7f34b	0.08200701
234	0x3e0e3eb8	0.13891113
235	0xbdba58da	-0.09098978
236	0xbc9c5cbf	-0.019087194
237	0x3c53786d	0.01290713
238	0xbc43965c	-0.011937704
239	0xbd77d10b	-0.060502093
240	0xbe01644a	-0.12635913
241	0xbd8ea6b2	-0.06965388
242	0xbda0d1dd	-0.07852528
243	0x3defc4f3	0.11707487
244	0xbe076313	-0.13221388
245	0xbd013c22	-0.031551488
246	0xbe056b7c	-0.13029283
247	0x3dc05213	0.093906544
248	0xbcf18deb	-0.029486617
249	0x3e1f731c	0.15571254
250	0x3cd2db81	0.025739433
251	0xbd56ea54	-0.052469566
252	0x3e0a6e9f	0.13518761
253	0xb97ddbde	-0.00024209867
254	0x3e2d034f	0.16895793
255	0xbdc7a798	-0.09748763

MatMul_2 f4 [1, 32]
0	0x3decabca	0.11556204
1	0x3dc62e86	0.096768424
2	0x3d04e973	0.032449197
3	0x3e121d50	0.14268994
4	0xbea68189	-0.32520702
5	0x3dc754ef	0.09732997
6	0xbea8618f	-0.3288693
7	0x3bd50883	0.006501259
8	0xbeab08d9	-0.33405188
9	0xbea996df	-0.33122918
10	0xbddab905	-0.10679821
11	0x3e2192b4	0.15778619
12	0xbeb97e39	-0.36229113
13	0xbc713cf7	-0.014724008
14	0xbe29d68d	-0.16585751
15	0xbea5b989	-0.32368115
16	0xbea5ec3e	-0.324068
17	0xbeb1c8a4	-0.3472339
18	0x3ce40133	0.027832603
19	0x3e1eed0e	0.15520117
20	0x3d60cb7c	0.054881558
21	0x3e39afea	0.18133512
22	0x3e13df07	0.14440547
23	0xbdc7d42c	-0.097572654
24	0x3e16660e	0.14687368
25	0x3ddde649	0.10834939
26	0x3cc41fa5	0.02394087
27	0x3d9e916e	0.07742582
28	0x3db1d951	0.08684028
29	0xbce9ad38	-0.02852498
30	0xbeb0b7e3	-0.34515294
31	0xbdd38dbe	-0.103297696
