hey_alfred_sensitivity_1.tflite (tflite, 206748 bytes, 9 tensors)

Const_1 f4 [32]
00000000: 976a e93b 1e3d 12bc d783 4f3c 11c9 e83b
00000010: 0fd5 813a d9c6 cb3b d734 873c 1979 8f3a
00000020: c847 99bc bcfd 9c3c b69e bfbb 9aca 7c3b
00000030: 512e 4bbc ac3f a93b 5202 edbb 6b50 86bc
00000040: aab4 b03c 545e 85bc 9616 93ba ad05 9b3c
00000050: 289f 753a a9f5 523c 2f2f 8dbb 0f17 b8bc
00000060: 2440 433c fefa 81bc 63b4 8ebc 0193 7abc
00000070: 6fa4 53bc b7a4 933c a8d5 22bc 9cf1 d6bc
0.007123302 -0.008925704 0.01266571 0.007104047 0.0009905415 0.006218773 0.016504688 0.0010946124
-0.018710986 0.019163959 -0.0058477772 0.0038572908 -0.012401179 0.005165061 -0.0072329426 -0.016395768
0.021570522 -0.01628033 -0.0011221941 0.018923605 0.00093697244 0.012875953 -0.0043086032 -0.022471933
0.011917148 -0.015866753 -0.01742 -0.0152938375 -0.012917622 0.018022878 -0.009938635 -0.026238255

Const_2 f4 [32]
00000000: 1f99 7d3f e3c3 7b3f b2c2 7f3f a0c0 803f
00000010: 6cc4 7f3f b3d3 7b3f 579f 813f e2e8 7e3f
00000020: 19a3 7f3f f029 793f 122c 8b3f 97f6 7d3f
00000030: deb3 7f3f 83d5 7f3f acc5 7e3f 049a 893f
00000040: f57c 823f 9ba8 7f3f 3036 7c3f a753 783f
00000050: 3074 7a3f 4073 7f3f 21d3 7f3f 2e9a 7f3f
00000060: bed5 793f 270e 803f e1e1 813f 5929 823f
00000070: 742f 803f 084b 7a3f 6cbd 7f3f 7ba1 7f3f
0.9906177 0.98345774 0.99906456 1.0058784 0.9990909 0.983699 1.0126752 0.995741
0.9985824 0.97329617 1.0872824 0.9920439 0.9988383 0.9993517 0.99520373 1.0750127
1.0194384 0.99866647 0.98520184 0.97002643 0.9783354 0.9978523 0.9993153 0.99844635
0.9759177 1.0004319 1.0147058 1.0168868 1.0014482 0.9777074 0.9989841 0.99855775

Const_3 f4 [32]
00000000: b8f6 b13c cc72 c33c 7551 9fba d055 0a3c
00000010: 3228 6bba b13e 9b3a 2948 333c 415a 7bba
00000020: 0eb7 09bc 43f5 883b 2191 633c 69ae bbbb
00000030: d5ec 80bb 68ed e8b9 618f 4c3c e951 a03c
00000040: 4446 793c 9c4d 02bc 0d23 2e3c c173 e13a
00000050: a512 773c e46b 92bb 1c2c 9aba d9ba a2ba
00000060: 2774 aa3c e99b 4f3b 8992 093d f25d d43c
00000070: 4ded 7a3b fcd5 2f3c 3477 b33a 30bb d7bb
0.02172409 0.02385845 -0.0012155013 0.008443311 -0.0008970528 0.0011844245 0.010942497 -0.0009588339
-0.00840546 0.004179628 0.013889582 -0.0057275784 -0.0039344826 -0.0004442737 0.012485356 0.019570308
0.015214507 -0.007953074 0.010628474 0.0017200635 0.015080129 -0.004468428 -0.0011762413 -0.0012415304
0.020807339 0.0031678623 0.033587012 0.025923703 0.0038288415 0.01073217 0.0013692142 -0.006583594

Const_5 f4 [32]
00000000: f46f ae3c 6c0a 3dbd 09aa 1dbe fc8a 4ebd
00000010: ccd5 25bd ccfe 0b3e 1d7c ee3c e471 8b3c
00000020: 5ef0 0f3d e424 c9bc 016a ae3b c7e9 bbbd
00000030: 3fb3 e9bd 4de4 85bd df20 653d ddbb 05be
00000040: f01f 193d 50de 0d3e 6eb7 0b3e b917 c63d
00000050: 5c06 5cbd e3e3 57bd 2b36 213e 1855 7abd
00000060: 24bc 513d dfe2 e6bd a2b6 983b 7cda d2bd
00000070: ee45 373e 8bff 963c e77c 7fbd 9eab 3abe
0.021293618 -0.046152517 -0.15396895 -0.050425515 -0.040487096 0.13671416 0.029111916 0.01702208
0.03514134 -0.024553724 0.0053226952 -0.09175449 -0.114111416 -0.065376855 0.05593955 -0.13059945
0.037383974 0.13854337 0.13644192 0.096724935 -0.053717002 -0.052707564 0.1574332 -0.061116308
0.051204816 -0.11273741 0.0046604434 -0.10295579 0.1789777 0.0184324 -0.062374976 -0.1822953

Const_6 f4 [32]
00000000: b505 833f 3308 803f 3917 893f 6fd1 753f
00000010: c683 923f ea39 7f3f 472f 9b3f 6c19 803f
00000020: 2b2c 833f d4f4 853f e361 9a3f 4d47 843f
00000030: de01 9c3f 278b 833f 687d 983f 0a57 a33f
00000040: e1f0 ad3f 400b 803f 2588 833f 3d75 a13f
00000050: e09c 7b3f a866 9d3f 9d5a 7f3f 6648 9b3f
00000060: 5c34 9a3f 75b1 9e3f f30e 943f d442 803f
00000070: 93b9 823f c4f3 653f eb96 8e3f 1b6b 7f3f
1.0236117 1.0002502 1.0710212 0.96022695 1.1446464 0.99697745 1.2123803 1.0007758
1.0247854 1.0465341 1.2061123 1.0334259 1.218807 1.0276841 1.1913271 1.2760937
1.3589135 1.0003433 1.0275923 1.2613903 0.9828625 1.2296953 0.9974764 1.2131469
1.2047229 1.2397906 1.1567062 1.0020394 1.0212883 0.8982508 1.1139807 0.99772805

Const_7 f4 [32]
00000000: 59bc bc3c 4479 b5b9 5237 923d f775 45bd
00000010: f360 023d c9d6 d6bb 8b57 5b3e aa4f 3dba
00000020: 8568 6e3c 27e0 033d 04e8 593e da37 373d
00000030: bc0f 633e b33a 0c3d 0b2d 593e 1115 733e
00000040: 5e9f 8c3e b90f c6ba c414 893c 0c22 733e
00000050: be5f 1d3c aeec 653e c4be 81bc 362d 033e
00000060: d314 593e f718 683e 943a a83d 063f 80ba
00000070: 43b3 d63c 2abf b8bd f2c2 983d 564b a3bb
0.02303903 -0.0003461336 0.07139458 -0.048208203 0.03183074 -0.006556366 0.21420114 -0.00072216487
0.014551287 0.03219619 0.21279913 0.044731 0.22173971 0.034235667 0.21208589 0.23738505
0.27465338 -0.0015110887 0.016733535 0.23743457 0.009605346 0.22453567 -0.015838034 0.12810215
0.2119935 0.22665773 0.08214298 -0.0009784407 0.026208526 -0.09020837 0.07459058 -0.004983346

MatMul f4 [32, 1536]
00000000: 3b38 24bc 9140 813b e19c b13c 5e83 ac3b
00000010: 450e c7bc 76af 263b be8c 343c c93e 433b
00000020: dcf1 b83b 9457 dfbb 3e95 c7bc ef29 86ba
00000030: a682 9c3c a888 adbc bcd6 553b 3c23 03bd
00000040: b09e 0c3c 32d3 e0ba f612 c7b8 c4cf 233b
00000050: edd0 8cbb a450 42bc a50a 17bb f59a 1dbc
00000060: 3e0c bfbb 3944 edba ab4f a93c 0095 08bb
00000070: 74e0 86bc f294 e13b 7931 273c 3939 ae3c
00000080: 3572 9fbc 249e 62ba 68e9 413c 85c1 1a3b
00000090: 452e ab3c 6fc5 d53b a185 a63c c581 413c
000000a0: e11e 70bc 3193 aebc 39a1 a93c d8e0 bb3b
000000b0: cf5c 4dbc 1788 aa3b 6104 91bc c498 673c
000000c0: 6b87 9e3c 26a8 863c 0656 2fbb 8394 d23c
000000d0: 5eb5 3cbc c165 10bc d8b5 9e3c 08de d7bc
000000e0: f3e1 303b 489e 49ba 5c02 db3b c00f aa3b
000000f0: 55ba 75bc b751 1a3c b1a0 f4bb 5183 893c
00000100: 4e60 803c 7871 3e3c d34c ffbc e93b 82bb
00000110: 1c8b 48bb b7ce 80bc 38ad 793b 17b7 543c
00000120: 5038 0dbb 1119 b33c 5a12 83bc 7157 ae3b
00000130: 3774 d7bc b09e 60bb 1625 39bc 4c2d 653b
00000140: ec35 a93c 4769 133c be57 ad3c 2386 6fbb
00000150: 6187 8d3c 7240 4bbc 98b0 89bc a196 e53b
00000160: 881d 89bc 72c3 843c f7e3 b33c 88fb 9f3c
00000170: 4961 acbb 8a28 bb3b 72aa 323c bf11 d73c
00000180: 7c38 923c a74a e3bc 8cd5 ac3c 14b1 d03a
00000190: 0940 573c e124 8c3b 23ac 01bd 8f0e 823c
000001a0: 4013 80bc 7eb6 d43c 3243 ddbc b2cf 92bb
000001b0: a1d6 8cbb 3dfe 90bb 9d34 79bc ee99 1e3c
000001c0: 7efd 533c 6928 0b3c fcd7 7fbc 94a3 9f3c
000001d0: 4cc2 78bb e6d7 893c 2f57 bf3b e12f 8b3c
000001e0: a1e3 273c 90fc 043c 593a 233c 868f b33c
000001f0: 898d 8dbc 8bcc 0a3c b004 323c 3d38 94bb
00000200: e3f8 5b3c 8d79 5cbc 4045 b5bc da07 8b3c
00000210: eb8a c43c 4228 9dbc 4491 21bc 2d06 45bc
00000220: 0e75 8eba 91e3 233c 679a 923c 74d9 74bc
00000230: f4e5 6cbc 87a7 8a3c ace8 47bc f0f0 90bb
00000240: b217 8bba 7784 9bb9 5db8 513b fb50 123b
00000250: b3bc af3c 865b 7fbc de4b 663c 625e a8bc
00000260: fe9e 61bb 9954 b83c 678e 753c 9973 c33b
00000270: e0f9 833c b55a 9f3c a272 09bc c667 923c
00000280: 1424 d4bb 569f 3abc 3a88 65bc c6c0 263c
00000290: 1e8f dcbc 0dd1 8dbc 6e9b 09bd d02f adbc
000002a0: bfba 0cbc 0e13 b5bb 2b49 be3c 92bd eebc
000002b0: 418d 4fbc cf6a 7e3b b1b7 8bbb 704c 47bc
000002c0: 118d ea3b 1426 0cbc 36df 0c3a e655 7a3c
000002d0: 3e2c 10bc e114 50bc f58b c33c ca64 383c
000002e0: 5ea3 2dbc dadd 9d3c 3736 89bc 9b80 70bc
000002f0: 6c7b 4fbc dc79 efba 8938 47bc 74dc 39bc
00000300: a316 003c cb25 933c b3c9 6bbb 9651 423c
00000310: ef37 7ebb 9582 9abc 336f 16bb 46c5 82bc
00000320: 1e88 973b 79d8 babb 9f41 40bc ac0c 8bbb
00000330: a437 ae3c 705b aebc b623 7a3c 331c cf3b
00000340: e7ec a63b 608c 59bb a144 8c3c 1a4f d63b
00000350: 4663 7a3c d10f 693b 8040 46bc be2d 943c
00000360: b31e d0bc 3204 30bc 0972 b1bc b8fa 3f3c
00000370: 8d50 aa3c dba8 da3c de08 e33b 2efc c43c
00000380: 5be3 623c 18fa 5abc ea13 a53c a1d0 763c
00000390: 8ce5 c83c 7c08 9a3c 5b3b b63c e91b 6f3c
000003a0: e2a0 3fbc 6752 c13c 1264 4c3c ca11 2dbb
000003b0: 3a23 a8bc ab5c ee3b 8b65 813c 63de fb3b
000003c0: 1921 093d 549e 913c e3ee c4bc 6682 97bc
000003d0: fdb9 e53c 4d1b 7cbc f9a6 893c e8e4 c7bc
000003e0: 3fbd 663c e74d a43a dcef d1bc b8a4 4fbb
000003f0: ad6e 23bb 503a dd3c 65dc 83bc 04f4 aa3c
-0.010023172 0.0039444645 0.021681251 0.0052646836 -0.024298796 0.0025434173 0.011019884 0.0029792062
0.0056440663 -0.00681586 -0.024363156 -0.0010235886 0.019105267 -0.021183327 0.0032629212 -0.032016024
0.008582756 -0.0017152785 -9.492591e-05 0.0024995664 -0.004297367 -0.011860047 -0.0023047116 -0.009619464
-0.005830317 -0.0018101997 0.020667871 -0.0020840764 -0.01646445 0.0068842107 0.010204666 0.02126752
-0.019463638 -0.00086447806 0.011835434 0.0023613882 0.020896086 0.00652378 0.020327391 0.011810725
-0.0146558 -0.02131042 0.02070676 0.0057335906 -0.012534334 0.0052042115 -0.017702283 0.014135543
0.019351682 0.016437601 -0.0026754155 0.025705582 -0.011517851 -0.0088133225 0.01937382 -0.02635099
0.0026990145 -0.0007691127 0.006683631 0.005189866 -0.014998038 0.009418896 -0.007465445 0.01678625
0.015670922 0.011623733 -0.031164562 -0.003974427 -0.0030600494 -0.01572357 0.0038097631 0.012983105
-0.0021548457 0.021862539 -0.015999962 0.0053204824 -0.026300533 -0.0034274273 -0.011300346 0.0034969626
0.020655595 0.008997268 0.021160003 -0.0036548458 0.017276468 -0.012405502 -0.01680784 0.0070064818
-0.016737714 0.016206477 0.021959288 0.01952912 -0.0052606207 0.0057116197 0.010904895 0.02625358
0.0178492 -0.027745558 0.02109792 0.0015921914 0.013137826 0.0042768572 -0.031658303 0.015876083
-0.01563418 0.025965925 -0.02700958 -0.0044803256 -0.0042980467 -0.004424839 -0.015210298 0.009680254
0.012938855 0.008493521 -0.0156154595 0.01948718 -0.0037957607 0.016826581 0.0058392505 0.016990604
0.010247142 0.008116856 0.009962642 0.021919023 -0.017279403 0.008471618 0.010865375 -0.0045233057
0.013426038 -0.013456714 -0.022127748 0.016971517 0.023992022 -0.019184235 -0.009861294 -0.012025398
-0.0010868625 0.0100029865 0.01789589 -0.014944423 -0.014459122 0.016925586 -0.012201469 -0.0044232532
-0.001061192 -0.00029662598 0.0032000758 0.00223261 0.021452283 -0.015585786 0.014056174 -0.020552818
-0.0034427042 0.022501277 0.014987565 0.005964708 0.01611036 0.019452432 -0.008389147 0.017871749
-0.0064740274 -0.011390528 -0.01400953 0.010177797 -0.026923712 -0.017311597 -0.033595495 -0.021140963
-0.008589446 -0.005525953 0.023228249 -0.029143129 -0.012667955 0.0038820987 -0.004263841 -0.01216422
0.0071579297 -0.008554 0.0005373837 0.015279269 -0.008799611 -0.01270029 0.023870448 0.011254499
-0.010598032 0.019270826 -0.016749484 -0.014679099 -0.012663703 -0.001827057 -0.012159475 -0.011344064
0.007817897 0.017962357 -0.0035978376 0.011860272 -0.0038790663 -0.018861094 -0.0022954463 -0.015963208
0.0046243807 -0.005702075 -0.011734395 -0.004243454 0.021266766 -0.021283835 0.015267303 0.0063205003
0.005094159 -0.0033195242 0.017122569 0.0065401914 0.015282458 0.0035562406 -0.012100339 0.018088218
-0.025405264 -0.010743188 -0.021660822 0.011717491 0.020790363 0.026691845 0.0069285473 0.02404603
0.013848151 -0.013365291 0.020151097 0.015064389 0.024523519 0.018802874 0.0222451 0.014594057
-0.011696072 0.023598863 0.0124750305 -0.0026408308 -0.02052461 0.0072742305 0.01579549 0.0076864227
0.03347883 0.017775692 -0.024039691 -0.018494796 0.028042788 -0.015387368 0.016803252 -0.024401143
0.014083206 0.0012535424 -0.02562707 -0.0031683873 -0.0024937794 0.027005345 -0.016096303 0.020868309

MatMul_1 f4 [32, 32]
00000000: 6562 8c3c 4e40 a73d fb1f 803b 5e4c 75bd
00000010: 0637 1f3e b100 ccbd fcf9 b03d 86fd 5d3d
00000020: 0cc3 043e 4120 e9bc e90d fcbc bdfd 463e
00000030: 52f0 b4bd 4f97 56bc b10f 1dbe fe7e 253e
00000040: bf09 eebc 1276 b2bd 5a22 1b3b 97f9 eb3c
00000050: b0fe 10be 514d 2cbe c3a8 423c 0b40 683d
00000060: b6eb 90bd 7108 27bd 7bdb 023e bffc de3d
00000070: 62cb 293d 990c 21be 3fb8 22bd eaf7 313e
00000080: 6152 6a3d 7e44 303e 3213 2f3e 5d09 2c3e
00000090: cc10 2abe 3b83 153e 4520 c2bd 8315 743d
000000a0: b413 c6bd f83e dc3d 61c9 3c3d 1046 333d
000000b0: 0be4 013e a266 a9bd cb56 133e f009 cfbd
000000c0: 0dc5 1bbd 76db 003e 6e80 9d3d 8de3 0f3e
000000d0: f05a 2abe 5121 d3bd 478b 133e 5647 da3d
000000e0: 6cbe a7bd d36a 263e 4e61 11be 15da 563d
000000f0: 46f8 91bd ece7 1cbe 2b1a 7cbc b865 e2bd
00000100: a116 ad3c 255a 1d3e ea72 133e 7c7c 233e
00000110: 1ca3 0fbe 7c07 173c c892 ad3d 2c50 afbd
00000120: 468d eabd 5bbb 83bd ca8e 26bd bad1 08be
00000130: ae38 29be b40e 45bd 45b5 e7bb b077 1a3e
00000140: 14b3 94bd 463b 25bd 0135 343c 782b 823c
00000150: f111 793d 3c3b 18be d7f3 983d d5ba 47bd
00000160: 1b80 0f3e 7bbe e23d 9667 473d 92b0 2ebd
00000170: f15b 143e 7547 e7bd 7089 14bc 6537 323e
00000180: 58a9 3d3d d045 fd3d 9d4c c1bd 37d4 743d
00000190: 954d 28bd 525c e9bd bac7 dabd 3580 0fbd
000001a0: 0470 10be 2463 b93d 8ead fc3d 38e0 013c
000001b0: 5d83 02be ae4e 1fbe 9ced 03be 1e8b 19bc
000001c0: 5a3a f53c 06ac a5bc 9fa5 32be fefd c3bd
000001d0: e43a 30bd 4b72 1bbe 3582 47bc 12c5 e7bc
000001e0: 1935 4dbd 2505 233e b9b5 7b3d 4e2b 493d
000001f0: e7fa 48be c64f 35bd 497b 093e d3d0 9f3d
00000200: f67d f4bc 79e9 dfbd 8df4 543c 3b27 09be
00000210: 9a36 b43d ece0 e23d 36c4 d0bd 716c e9bd
00000220: a682 a63d 0e0e f03d d061 0abe 7a75 05be
00000230: e6da 953d c1ba 653c ab43 8a3c 8573 703c
00000240: 5389 033e a31e 06be 591f 0bbe 5795 57bd
00000250: 3155 f1bd 290d 0cbe 1145 48bc ff75 83bd
00000260: 0719 19bd f6ad bc3d 8c9c 0e3e dcc8 c53d
00000270: 51bf 4cbd 4ad6 183d 0599 5c3d dd53 053e
00000280: 35a2 2bbe d490 d9bd 8a37 bebd a993 7e3d
00000290: 3a37 713b c5e4 dfbd 4b86 083c 7b93 113e
000002a0: 5544 d73d a842 c83d eda7 db3d a19a 32bd
000002b0: 5076 333e 6e44 fcbd 3f34 b6bd 635a d3bc
000002c0: 2d8a bebd 7630 fd3d 1a6c 35bd c98f f03d
000002d0: 821d 4bbd d043 ccbd 61eb 1b3e 0dff 1e3e
000002e0: 10e2 0fbe 828f f73d aeaa 503c 71d4 dd3c
000002f0: b2f7 c83d 01e4 8fbd 96a0 c1bd e156 9fbb
00000300: eef5 24bd c262 90bb d8df c0bd ea73 7cbc
00000310: 5f22 043e 7074 2cbe 945c e2bd 81f3 8bbd
00000320: 6771 21be 6fc1 2c3d 270d 433e fe91 3fbc
00000330: 6fda 1abe de7b c43d 4597 3a3e 7039 7bbd
00000340: aa4b 18bd e32e 323e 1bd3 d73d e919 b63c
00000350: cb1a dbbd 2317 29be ecd9 c7bb 5278 bc3d
00000360: 8193 4a3d 376e bcbb ef5d b6bd abdd c8bd
00000370: 817d 0abc 9cdc 363e 5ae2 52bd 76d4 cbbb
00000380: 7278 b2bc af05 b4bd 4052 92bc 892f cd3d
00000390: 77dc 763d 5f68 bcbd faee 913d 759e f4bd
000003a0: b3db f73c 694c 1cbc 7982 3b3d 1280 b1bd
000003b0: ed9f fb3d 5e66 24be de48 e7bd 777c 7c3d
000003c0: af0c b2bd b7b3 a43d e6fd 653d 895d 983d
000003d0: 1522 97bd 5bd4 373d 79bf 20be 26fc 3c3d
000003e0: 3433 8fbd 0e4a b6bd 283f 10be 14c4 6d3d
000003f0: 0016 febc e401 473d b005 12be 25eb 73bd
0.017136762 0.08166562 0.0039100624 -0.059887283 0.15548334 -0.099610694 0.08641431 0.054196857
0.1296503 -0.028457763 -0.030768352 0.19432731 -0.088349 -0.013097598 -0.15338017 0.16161725
-0.029057382 -0.087139264 0.0023671598 0.028805537 -0.14159656 -0.16826369 0.011881056 0.0567017
-0.07076208 -0.040779535 0.12779038 0.10888051 0.041453727 -0.15727462 -0.039726492 0.17379728
0.05720747 0.17213628 0.17097166 0.16800447 -0.1660797 0.14600842 -0.09478811 0.059590828
-0.09671727 0.10754198 0.046090487 0.04376799 0.12684648 -0.08271529 0.14388578 -0.10109317
-0.03802972 0.12583718 0.07690512 0.14051647 -0.16636252 -0.10309089 0.14408599 0.106581375
-0.08190617 0.16251688 -0.14197275 0.052454073 -0.071274325 -0.15322846 -0.015387098 -0.110545576
0.021128954 0.15366419 0.14399305 0.15965456 -0.14027065 0.009218093 0.08475262 -0.085602134
-0.11452727 -0.064322196 -0.040663518 -0.13361254 -0.16525528 -0.048109725 -0.0070711696 0.1508472
-0.07260719 -0.04033973 0.010998965 0.015889868 0.060808126 -0.14866346 0.07468384 -0.04876216
0.14013712 0.110714875 0.04868277 -0.04264886 0.14488198 -0.11292926 -0.009065971 0.17403944
0.046304077 0.12366831 -0.09438441 0.059772696 -0.041089613 -0.11394562 -0.10682626 -0.035034377
-0.1410523 0.09052113 0.123377904 0.007926993 -0.12745424 -0.15557358 -0.1288361 -0.009371547
0.02993505 -0.020223629 -0.17445992 -0.095699295 -0.043024912 -0.15180318 -0.01217704 -0.028292213
-0.050099466 0.15919931 0.0614526 0.049113564 -0.19626962 -0.04426553 0.13425936 0.07803502
-0.02984522 -0.10933203 0.012997759 -0.13393871 0.08799477 0.11078057 -0.10193674 -0.11397637
0.08130388 0.11721431 -0.13513875 -0.13033095 0.07317142 0.014021576 0.01687797 0.0146759795
0.12845354 -0.13097624 -0.13586177 -0.052632656 -0.11783827 -0.13676895 -0.012223498 -0.0641899
-0.037377384 0.09212868 0.13926905 0.096574515 -0.04998714 0.037313737 0.05385687 0.13020273
-0.16761096 -0.10623327 -0.09287937 0.06215254 0.00368066 -0.10932306 0.008332799 0.14216416
0.1051108 0.09778339 0.10725389 -0.043604497 0.17525601 -0.123177394 -0.08896684 -0.025799936
-0.09303699 0.12362759 -0.044292547 0.11746175 -0.049588688 -0.09973872 0.15226509 0.15526982
-0.1405108 0.12087919 0.012736006 0.027078839 0.09812869 -0.0702591 -0.094544575 -0.0048626517
-0.0402736 -0.004406304 -0.09417695 -0.015408495 0.12903737 -0.16841292 -0.11052814 -0.06833554
-0.15765916 0.04217666 0.19047986 -0.011692522 -0.15122388 0.09593938 0.18221767 -0.061334074
-0.037181534 0.17400698 0.10538312 0.022229152 -0.1069847 -0.16512732 -0.0060989764 0.09202637
0.049457077 -0.0057504433 -0.08904635 -0.09807905 -0.008452774 0.17857593 -0.051485397 -0.0062203957
-0.021785948 -0.087901466 -0.017861485 0.10018832 0.060268845 -0.09199595 0.07125659 -0.11944286
0.030256128 -0.009539702 0.045778725 -0.086670056 0.12286363 -0.16054675 -0.11293195 0.061642136
-0.086938255 0.080420904 0.05615034 0.074397154 -0.073795475 0.044880252 -0.15698041 0.046138905
-0.06992188 -0.089008436 -0.14086592 0.058048323 -0.03101635 0.048585787 -0.14259982 -0.059550423

MatMul_2 f4 [1, 32]
00000000: 1816 3f3e 96f3 a13c a2e7 593e 395b bfbd
00000010: 500f 383e f50e ee3c e762 b8be 7026 a9bd
00000020: a736 1d3d a3b1 563e cf4c b7be cf58 0a3e
00000030: c895 adbe a2bc 953d 0132 aabe de31 afbe
00000040: e8f9 afbe a6d0 02be e722 dc3d 89a4 a3be
00000050: 8ecd a63d b8f2 b4be d22d 88bd 4e29 aa3e
00000060: b163 b2be ef20 a3be bddb 283e a755 2dbe
00000070: f23c 323e 9e7a 94bd 364a af3d f5de 643c
0.18660772 0.019769471 0.21279767 -0.09343571 0.17974591 0.029059866 -0.36012957 -0.082592845
0.0383822 0.209662 -0.35800788 0.1351044 -0.33903337 0.073113695 -0.33241275 -0.34217733
-0.3437035 -0.12774906 0.107488446 -0.31961468 0.08144675 -0.3534143 -0.066493645 0.33234638
-0.34841684 -0.31861064 0.16490074 -0.16927205 0.17406061 -0.0724995 0.085590765 0.013969173
